checkpoints/h36m_model.pth (torch, 625721 bytes, 196 tensors)

motion_transformer.transformer.0.fc0.fc.weight f4 [50, 50]
0	0xbd193d41	-0.037411932
1	0x3d27004a	0.04077176
2	0xbd62b398	-0.055347055
3	0x3d32b573	0.043630075
4	0xbd3001bb	-0.0429704
5	0x3d37690a	0.044777907
6	0xbd3dae2a	-0.046308674
7	0x3d330ad1	0.043711487
8	0xbce87278	-0.028374895
9	0x3d1b4673	0.037908982
10	0xbc8325d9	-0.016009258
11	0x3d2322ff	0.039828297
12	0xbc396561	-0.0113156745
13	0x3cca35f0	0.024683923
14	0xbc869f16	-0.01643328
15	0x3cc7b0a0	0.024376214
16	0xbbd1ac41	-0.006398708
17	0x3c989100	0.018623829
18	0x3b849f17	0.0040472853
19	0x3c935b6d	0.017987931
20	0x3bd0c1e6	0.0063707707
21	0x3c8351a9	0.01603015
22	0x3c0bafce	0.008525802
23	0x3c73384b	0.014844964
24	0x3c38d0ea	0.011280278
25	0x3c8f628e	0.01750305
26	0x3bfe7477	0.0077653485
27	0x3c75ad74	0.014994968
28	0x3bba3d6b	0.005683591
29	0x3c5304f0	0.012879595
30	0x3bd7e890	0.006589003
31	0x3c2d571d	0.010579851
32	0x3c10eb93	0.008845228
33	0x3c0a8802	0.008455278
34	0x3c0bc9f4	0.008532036
35	0x3c0d9511	0.008641497
36	0x3be1b4ef	0.006888024
37	0x3be5c21c	0.007011665
38	0x3bce708e	0.0063000387
39	0x3bf59f7b	0.007495818
40	0x3bf5c82d	0.0075006695
41	0x3be0aeaf	0.0068567614
42	0x3bcdd667	0.0062816623
43	0x3bd27600	0.006422758
44	0x3bebb112	0.0071927393
45	0x3bae7b51	0.005324759
46	0x3c056651	0.00814207
47	0x3bd93488	0.0066285767
48	0x3bc4e207	0.00600839
49	0x3b8da736	0.0043229116
50	0x3aeda9ef	0.0018132309
51	0xbcbd9c34	-0.023145773
52	0x3bb4e002	0.005519868
53	0x3c543f59	0.012954556
54	0xbbfe9c11	-0.0077700694
55	0x3c856e6e	0.016288009
56	0xbd227f6c	-0.0396723
57	0x3d388315	0.045046885
58	0xbb7e12a3	-0.0038768433
59	0x3c0cd837	0.0085964715
60	0xbc8fdfb6	-0.017562728
61	0xbc948ce0	-0.01813358
62	0x3ca4e346	0.020127904
63	0xbba3abef	-0.0049948613
64	0x3c4fed69	0.01269088
65	0x3c0133a8	0.007885851
66	0x3c8b450a	0.017000694
67	0x3bc847e4	0.0061120857
68	0x3be60d47	0.0070206258
69	0x3cabbae2	0.020963136
70	0x3bc8d2a5	0.0061286264
71	0x3ca1c6c0	0.019748092
72	0x3af9df0c	0.0019063666
73	0x3cb2d7ab	0.021831354
74	0x3bc6bc99	0.006064963
75	0x3c9c38ae	0.019069996
76	0x3c06aa1e	0.00821927
77	0x3c94e239	0.018174278
78	0x3c6086d4	0.0137040205
79	0x3c832d84	0.016012914
80	0x3c4e6cb9	0.012599164
81	0x3c304e8a	0.010760913
82	0x3c3af81b	0.011411692
83	0x3c10e608	0.008843906
84	0x3c803e32	0.015654657
85	0x3c52f13f	0.0128749
86	0x3c5fb32c	0.013653558
87	0x3c2a50c1	0.01039523
88	0x3c67467b	0.014115925
89	0x3c4c23a9	0.012459674
90	0x3c4a0157	0.012329421
91	0x3c5af1e9	0.01336334
92	0x3c2dba4f	0.010603501
93	0x3c3245fa	0.0108809415
94	0x3c4ee505	0.012627845
95	0x3c41a0af	0.011818095
96	0x3c40bba6	0.011763489
97	0x3c4e3b48	0.012587376
98	0x3c52e64e	0.012872292
99	0x3c6b40b5	0.014358689
100	0xba52337e	-0.0008018537
101	0xbc17ac98	-0.009257458
102	0xbc930c40	-0.017950177
103	0xbc89b465	-0.016809652
104	0xbc6ca990	-0.014444724
105	0xbb8525bd	-0.0040633366
106	0x3c9eac2a	0.019369204
107	0xb83393fa	-4.281474e-05
108	0x3c3ae619	0.011407399
109	0x3bd62116	0.006534706
110	0xbc13a6da	-0.0090119485
111	0xbb88bd94	-0.00417299
112	0xbce68216	-0.028138202
113	0x3c3c5a29	0.011496105
114	0xbbe273d5	-0.006910781
115	0xba93ee9f	-0.0011286325
116	0xbc92f053	-0.017936861
117	0xbc0d82ee	-0.008637173
118	0xbc5c6c03	-0.013453486
119	0xbc4f2a26	-0.012644326
120	0xbc98c081	-0.01864648
121	0xbc461892	-0.012090819
122	0xbc6428e7	-0.0139257675
123	0xbc99dd07	-0.018782152
124	0xbc694172	-0.014236795
125	0xbcaaf2d4	-0.020867743
126	0xbc14b566	-0.009076452
127	0xbca2046d	-0.019777501
128	0xbc8504a7	-0.01623757
129	0xbcc32573	-0.023821568
130	0xbc8ee148	-0.017441407
131	0xbc84e8a2	-0.01622421
132	0xbc8e6acb	-0.017384907
133	0xbc4e0d30	-0.012576386
134	0xbc88c798	-0.016696736
135	0xbc929394	-0.017892636
136	0xbc9a9fb3	-0.018874979
137	0xbc804bf6	-0.015661221
138	0xbc9a35e3	-0.018824523
139	0xbc9aa4cc	-0.01887741
140	0xbc9fa6bc	-0.019488685
141	0xbc861e51	-0.016371878
142	0xbc8f3f31	-0.017486187
143	0xbc5e341e	-0.01356223
144	0xbcaac1b0	-0.02084431
145	0xbc86af89	-0.016441124
146	0xbc9749f9	-0.01846789
147	0xbc84c10a	-0.01620533
148	0xbc8d5aef	-0.017255275
149	0xbc9eb0da	-0.019371439
150	0xbb654c26	-0.0034988015
151	0x3acce9d8	0.0015633656
152	0xbc0ef86b	-0.00872622
153	0x3a319263	0.00067738275
154	0xbcdaf15e	-0.026726421
155	0xbbb80903	-0.0056163087
156	0xbca9b6a7	-0.020716978
157	0x3cd23a3a	0.02566253
158	0x3b2b5927	0.0026145668
159	0x3c52b6e8	0.012860991
160	0xbd0517b2	-0.0324933
161	0x3b021b42	0.0019852673
162	0xbc0bf6b3	-0.008542704
163	0x3a79c273	0.00095275714
164	0xbc9c9ad7	-0.019116802
165	0x3c05dd9d	0.0081705125
166	0xbc76f5a4	-0.015073214
167	0xbb8ebf54	-0.004356304
168	0xbc9b64bd	-0.018968934
169	0xba527191	-0.0008027787
170	0xbcb6c9e3	-0.022313064
171	0xbc4efb41	-0.012633146
172	0xbc59a3df	-0.013283699
173	0xbc4cc4ca	-0.01249809
174	0xbc8addbb	-0.016951432
175	0xbc1c702f	-0.009548231
176	0xbc42636b	-0.011864523
177	0xbc74e8ca	-0.014948079
178	0xbc514c7e	-0.012774585
179	0xbc82025e	-0.01587027
180	0xbc67134e	-0.014103724
181	0xbca7760f	-0.020442037
182	0xbc8892e7	-0.016671611
183	0xbcbe28df	-0.023212848
184	0xbc7f1ec4	-0.0155713
185	0xbc8c6b8b	-0.017141124
186	0xbc9ac05f	-0.018890558
187	0xbc98197c	-0.01856684
188	0xbc95f909	-0.018307226
189	0xbc908dfb	-0.017645827
190	0xbc814dde	-0.0157842
191	0xbc9bba71	-0.0190098
192	0xbc8673f5	-0.016412714
193	0xbcb5f65d	-0.022212202
194	0xbc8137f5	-0.015773753
195	0xbc97f7bd	-0.018550748
196	0xbc910a51	-0.017705115
197	0xbc8b8ebf	-0.01703584
198	0xbc9eaf3e	-0.019370671
199	0xbcb5e8a7	-0.022205664
200	0xbac40832	-0.0014956056
201	0xbc9acb76	-0.018895846
202	0xbc29f044	-0.010372225
203	0xbbf4b57d	-0.007467924
204	0xb9c8fa61	-0.0003833352
205	0xbd56636b	-0.052340906
206	0x3c2340d8	0.00996419
207	0xbd2838c0	-0.041069746
208	0x3d5a166e	0.053244047
209	0xbb8b5542	-0.004252107
210	0x3c3cfaf9	0.011534446
211	0xbd0e92aa	-0.03480784
212	0x3c1763b9	0.009240084
213	0xbc2e15fb	-0.010625358
214	0xba865ca5	-0.0010250999
215	0xbbfd439e	-0.007729008
216	0xb735a96e	-1.0827889e-05
217	0xbc2c57e1	-0.010518999
218	0x3a3a417e	0.0007105096
219	0xbc326809	-0.010889062
220	0xbc1a4361	-0.009415478
221	0xbc604986	-0.013689404
222	0xbc3857b7	-0.011251382
223	0xbc7c38b8	-0.015394382
224	0xbc199820	-0.009374648
225	0xbc0b911a	-0.008518482
226	0xbc64ca19	-0.013964199
227	0xbc435c94	-0.011923928
228	0xbc3b6178	-0.011436813
229	0xbc48f138	-0.012264542
230	0xbc09912b	-0.008396427
231	0xbc8a998c	-0.01691892
232	0xbbccb773	-0.006247455
233	0xbc8fe1a5	-0.01756365
234	0xbc1b20ba	-0.009468252
235	0xbc8adda9	-0.016951399
236	0xbc12125a	-0.008915508
237	0xbc929673	-0.017894005
238	0xbbd0efcb	-0.006376242
239	0xbc83f24a	-0.016106743
240	0xbc066740	-0.008203328
241	0xbc8407f6	-0.016117077
242	0xbc0627de	-0.008188216
243	0xbc832760	-0.016009986
244	0xbc35e635	-0.011102249
245	0xbc7852fd	-0.015156505
246	0xbc1439eb	-0.009047012
247	0xbc6de2c2	-0.014519395
248	0xbc32e822	-0.010919603
249	0xbc2cab2b	-0.0105388565
250	0xbb41a2e8	-0.0029546563
251	0xbb2d7a49	-0.0026470593
252	0xbbd26419	-0.006420624
253	0xbc21048d	-0.009827745
254	0xbca40930	-0.020023912
255	0xbc1219a9	-0.008917251

motion_transformer.transformer.0.fc0.fc.bias f4 [50]
0	0xb7632360	-1.3538491e-05
1	0x37233110	9.72698e-06
2	0x35b3207b	1.3345992e-06
3	0xb739b410	-1.1068783e-05
4	0x369537ca	4.4470407e-06
5	0x36901fd6	4.2952406e-06
6	0x369ce9bc	4.6763726e-06
7	0xb69a84c2	-4.6050127e-06
8	0x3631dbd8	2.6503021e-06
9	0x3807cbb0	3.2376207e-05
10	0x3728aabe	1.0053334e-05
11	0xb62451ef	-2.4485596e-06
12	0xb67644aa	-3.6696824e-06
13	0xb5137d7a	-5.494436e-07
14	0x364ff768	3.0989413e-06
15	0x36ac9e42	5.144423e-06
16	0x36690a4f	3.4725706e-06
17	0x378c5dc3	1.6732962e-05
18	0xb6ccee6f	-6.107431e-06
19	0x36b72944	5.458629e-06
20	0xb6b37a15	-5.348828e-06
21	0xb617e809	-2.2635816e-06
22	0x35c43568	1.4618681e-06
23	0x34e0f4fd	4.1901504e-07
24	0x3711b92a	8.685785e-06
25	0x36846c25	3.9464962e-06
26	0x384acf95	4.835388e-05
27	0x364ba093	3.0342824e-06
28	0xb6f636fb	-7.337772e-06
29	0xb5a44030	-1.2237633e-06
30	0x36117815	2.167658e-06
31	0xb5c660ec	-1.4780358e-06
32	0x36a6fabb	4.9763744e-06
33	0xb6e9a227	-6.962818e-06
34	0xb64c1538	-3.041072e-06
35	0x36e3da45	6.790537e-06
36	0xb69c4f78	-4.6584137e-06
37	0xb68801da	-4.0533314e-06
38	0x364384fc	2.9134671e-06
39	0x361120f5	2.1625867e-06
40	0x36e1201f	6.709262e-06
41	0xb23b9089	-1.0917696e-08
42	0xb6d6114b	-6.37971e-06
43	0xb70b5739	-8.305354e-06
44	0xb4ac6989	-3.2114283e-07
45	0xb58899a8	-1.017751e-06
46	0xb5b778e1	-1.3669743e-06
47	0x36966d17	4.483048e-06
48	0x3633a348	2.676812e-06
49	0xb80a3d8c	-3.2959084e-05

motion_transformer.transformer.0.norm0.alpha f4 [1, 66, 1]
0	0x3e8394ae	0.2569937
1	0x3e39387a	0.1808795
2	0x3e105cf0	0.14097953
3	0x3df7d964	0.12102011
4	0x3e4825da	0.19545689
5	0x3e6f5da5	0.23375566
6	0x3e37b75d	0.17941041
7	0x3e156163	0.14587931
8	0xba650395	-0.00087361905
9	0x3e181f46	0.1485568
10	0x3e147f2c	0.14501637
11	0x3e0bd0d9	0.13653888
12	0x3e2e3098	0.17010725
13	0x3e15b646	0.14620313
14	0x3e135254	0.14386874
15	0x3e2b23c7	0.16712867
16	0x3e65e1db	0.22449438
17	0x3e0a1579	0.13484754
18	0x3db99563	0.090616964
19	0x3e2e2d31	0.17009427
20	0x3e1a3dc1	0.1506262
21	0x3e43400b	0.19067399
22	0x3e2f90f1	0.17145135
23	0x3e12afff	0.1432495
24	0x3e227827	0.15866147
25	0x3ee51cad	0.4474844
26	0x3e5d30c6	0.21600637
27	0x3e128954	0.14310199
28	0x3e17dd8b	0.14830606
29	0x3e41bb8c	0.189192
30	0x3e46c872	0.19412401
31	0x3e154d20	0.14580202
32	0x3e423b46	0.18967924
33	0xbac1069b	-0.00147267
34	0x3e61972b	0.22030322
35	0x3e33783c	0.17526335
36	0x3e195e09	0.14977278
37	0x3de19370	0.110144496
38	0x3e310e21	0.17290546
39	0x3e51f5c0	0.20503902
40	0x3e28840e	0.16456625
41	0x3e8d3324	0.2757808
42	0x3e17c27c	0.14820284
43	0x3e570224	0.2099691
44	0x3e4a70e1	0.19769622
45	0x3e6f0d8c	0.23345011
46	0x3e7bd7e8	0.2459408
47	0x3e6da1be	0.23206231
48	0x3e6f1a06	0.23349771
49	0x3e0f4b4d	0.13993569
50	0x3e6f254f	0.23354076
51	0x3e4fa49c	0.20277637
52	0x3e546435	0.20741351
53	0x3e15093e	0.14554307
54	0x3d9d7178	0.07687658
55	0x3e1e3fb9	0.15453996
56	0x3e2f3dac	0.1711337
57	0x3e52c208	0.2058183
58	0x3daefeef	0.085447185
59	0x3e691bb8	0.2276448
60	0x3e2ac22f	0.16675638
61	0x3e3c615b	0.18396513
62	0x3dd09cf6	0.10186188
63	0x3e1a4834	0.15066606
64	0x3e90bece	0.28270572
65	0x3e649539	0.22322549

motion_transformer.transformer.0.norm0.beta f4 [1, 66, 1]
0	0x3c3ff9fc	0.011717316
1	0xbb52c391	-0.0032160024
2	0xbab4f8f2	-0.0013807102
3	0x37fff114	3.051063e-05
4	0xbb0df461	-0.0021660554
5	0x3b05799c	0.0020366674
6	0xba3178f5	-0.0006770038
7	0xbaa8d0f3	-0.0012879655
8	0x3dc2e027	0.0951541
9	0xba85ebf7	-0.0010217418
10	0xbac90220	-0.0015335716
11	0xba75837b	-0.00093656004
12	0xb959354d	-0.00020714589
13	0xbaa0d365	-0.0012270032
14	0xb98fe84a	-0.00027448154
15	0x374bf7c2	1.21574285e-05
16	0x394bef59	0.00019448753
17	0xbce98c24	-0.028509207
18	0x3a271c0c	0.0006374724
19	0xb9f7aacb	-0.00047238762
20	0xb9f6e6b2	-0.00047092658
21	0x3a9a52ac	0.0011773906
22	0xbaa8545e	-0.0012842526
23	0xbafd5f35	-0.0019330742
24	0xbb4cda6e	-0.0031258124
25	0xbb3f0649	-0.0029148033
26	0xbabdf8c4	-0.0014493694
27	0xbab6e1ed	-0.0013952829
28	0xb9cd5316	-0.0003916255
29	0xbaeba6f9	-0.0017978839
30	0xba1063c1	-0.00055080286
31	0xbb05e187	-0.0020428614
32	0xbadc4566	-0.001680535
33	0xbd0702de	-0.03296172
34	0xbad2c625	-0.001608078
35	0xbb42f966	-0.0029750704
36	0xba584bb0	-0.00082510244
37	0xbb7a8096	-0.0038223616
38	0x3a7f2632	0.00097331696
39	0xbb00c3b3	-0.0019647896
40	0xbaca76b7	-0.0015446757
41	0x397ed584	0.00024302868
42	0xba1e70c4	-0.0006044025
43	0xbaa1cfe2	-0.0012345279
44	0xb962138a	-0.00021560318
45	0xbb405745	-0.0029348892
46	0x3b030ee2	0.0019997885
47	0xbb056b61	-0.0020358192
48	0x3aec9727	0.0018050418
49	0xbaf3250a	-0.0018550467
50	0xba7f6f90	-0.0009744102
51	0xb75d6166	-1.3195304e-05
52	0x39c8fd49	0.00038335685
53	0xbaffa686	-0.0019504584
54	0xbab1db06	-0.0013569302
55	0xbaff7f8b	-0.0019492967
56	0x3851c3e3	5.0011917e-05
57	0xba47eda3	-0.0007626658
58	0x3963f60c	0.00021740067
59	0xb91a208e	-0.00014698712
60	0xbb23bc81	-0.0024984183
61	0x3a1227c9	0.00055753865
62	0xbb21839d	-0.0024645098
63	0x39c54356	0.00037624937
64	0xba57b703	-0.000822887
65	0xb916b49a	-0.00014372394

motion_transformer.transformer.1.fc0.fc.weight f4 [50, 50]
0	0xbc823d43	-0.015898352
1	0x3c260f22	0.010135444
2	0xbd68569c	-0.056723222
3	0x3ba03d90	0.0048901513
4	0xbc48968f	-0.012242927
5	0x3bf65aa1	0.007518128
6	0x3bd77544	0.0065752584
7	0xbbc50dd5	-0.006013612
8	0x3d22f08c	0.039780185
9	0x3c022187	0.007942564
10	0x3d573d31	0.05254859
11	0x3bb630dc	0.0055600237
12	0xbc49c304	-0.012314562
13	0x3cb522e1	0.022111358
14	0x3d0f9ae9	0.035059843
15	0x3c4ac1d9	0.012375318
16	0x3ba8044b	0.005127465
17	0x3caae26a	0.020859916
18	0x3c6e1698	0.014531754
19	0x3d0c7f98	0.03430137
20	0xbb83425a	-0.0040057125
21	0xb957fabb	-0.00020597402
22	0x3bf2c8f8	0.0074092112
23	0xbba5747f	-0.005049288
24	0x3cdd5102	0.027016167
25	0x3cb40087	0.021972908
26	0x3a782a62	0.0009466765
27	0xba9aa92f	-0.0011799688
28	0x3abd7955	0.0014455715
29	0x3bb3f87b	0.0054922677
30	0x3b703f95	0.0036658992
31	0x3a8e62af	0.001086315
32	0xbb034555	-0.0020030339
33	0xbbe6ecfc	-0.0070472937
34	0xbc997e19	-0.018736886
35	0x3a969d63	0.0011490997
36	0xbcae3780	-0.021266699
37	0xbc5024eb	-0.012704114
38	0x3aa1b459	0.0012337073
39	0xbc312169	-0.010811188
40	0x3c3934de	0.011304108
41	0x3c821c3f	0.01588261
42	0x3c065588	0.008199103
43	0x3b3e9f64	0.0029086703
44	0x3c94566a	0.018107612
45	0x3cb4243c	0.021989934
46	0xbbf5bc0c	-0.0074992236
47	0xbb3c5fe7	-0.0028743686
48	0x3d40c3c9	0.047061715
49	0x3d081197	0.0332199
50	0x3b1baa86	0.0023752763
51	0xbc84d7c5	-0.016216168
52	0xb9414140	-0.00018430222
53	0x3b52815f	0.0032120568
54	0xbab22945	-0.0013592622
55	0x3b075daa	0.0020655193
56	0x3ac6318a	0.0015120965
57	0x3ba123c2	0.0049175927
58	0xbbe9f040	-0.0071392357
59	0x3c0b8ac7	0.008516974
60	0xbaa3f6cf	-0.0012509468
61	0xbc33147b	-0.010930176
62	0x3bbd7b06	0.005782488
63	0x3b2fe833	0.0026841282
64	0x3b23dddb	0.0025004062
65	0xbd8260e5	-0.063661374
66	0x3b8733b4	0.0041260365
67	0xbb0f9f33	-0.0021914958
68	0x3a7f4af3	0.00097386463
69	0x3c2aa5e5	0.010415529
70	0x39e06f92	0.00042807736
71	0x3a1aa617	0.0005899383
72	0xbb879467	-0.004137564
73	0x3c0c78b6	0.008573702
74	0x3b427aa5	0.0029675153
75	0x3c72bee8	0.014816023
76	0x3c8d3aee	0.017240014
77	0x3b22c956	0.0024839244
78	0x3bb6ac85	0.005574765
79	0x3b0a7509	0.0021126887
80	0x3c9c2869	0.019062238
81	0x3b4e7e10	0.0031508245
82	0x3abe4a91	0.0014518072
83	0x3b9cfe59	0.004791063
84	0xba467fad	-0.0007572126
85	0x3b4a5474	0.0030873092
86	0xbacb1b5c	-0.0015495825
87	0x3b1f658d	0.0024322004
88	0x3af0c3f5	0.0018368947
89	0x3b7ffd98	0.0039061066
90	0x3b8521a3	0.0040628477
91	0xbb2d5454	-0.0026447969
92	0xbbe81263	-0.00708227
93	0x3d093cff	0.033505436
94	0xbc64b390	-0.013958827
95	0xbba558b6	-0.0050459756
96	0x3c342b00	0.01099658
97	0xbc12bc39	-0.008956009
98	0x3b615d2b	0.0034387808
99	0xbe6ec6c5	-0.23318012
100	0x3b2fd9c1	0.0026832672
101	0xbc024419	-0.007950806
102	0xbcde8d50	-0.027166992
103	0xbb9bc926	-0.0047542034
104	0x3c076e26	0.0082660075
105	0x3bc0cdc4	0.005883904
106	0xbbba31ff	-0.0056822295
107	0x3be6a693	0.0070389
108	0x3b877c8b	0.0041347197
109	0x3be12fe8	0.006872166
110	0x3c85dd72	0.016340945
111	0x3b181663	0.0023206703
112	0x3c6e6db1	0.01455252
113	0x3be4cf7d	0.0069827423
114	0x3c9b0fdb	0.018928459
115	0xbcb844f3	-0.022493815
116	0xbb30e953	-0.002699454
117	0x39f92bf8	0.0004752574
118	0x3ce8a846	0.028400552
119	0x3c885281	0.016640903
120	0xbc36e0f0	-0.011162028
121	0xbb5adbc3	-0.0033395148
122	0xbc404bcb	-0.01173682
123	0xbc3f303f	-0.011669218
124	0xbc535aa4	-0.012900028
125	0xbb3b9c57	-0.0028627121
126	0xbc273a1d	-0.010206726
127	0x3c3beb66	0.011469698
128	0x3b74dc1e	0.0037362645
129	0x3938f08d	0.0001763722
130	0x3c516ddc	0.01278254
131	0x3cc403e3	0.023927635
132	0x3bb9e5aa	0.00567313
133	0x3b258bf6	0.0025260425
134	0x3bef9169	0.0073110354
135	0x3c2fc012	0.0107269455
136	0x3ad96270	0.0016585123
137	0x3ca2a8f2	0.01985595
138	0xbb8abd6a	-0.0042340057
139	0xbbc0306e	-0.0058651483
140	0xba66149f	-0.00087768765
141	0xbc1b2cc8	-0.009471126
142	0xbd167df6	-0.03674122
143	0x3c49ab82	0.012308957
144	0xbc1ed724	-0.009694848
145	0x3b95c8af	0.0045710425
146	0x39dc0158	0.0004196267
147	0xbc76262c	-0.015023749
148	0xbc0529fa	-0.008127684
149	0xbdb377a8	-0.08763057
150	0x3c3969ed	0.011316759
151	0x3c008032	0.007843064
152	0xbc06ca18	-0.008226894
153	0xbc588be8	-0.01321695
154	0xbc2c1d3f	-0.01050502
155	0xbbbc16fd	-0.005740045
156	0xbb5b935a	-0.0033504576
157	0xbc001099	-0.007816457
158	0xbc40f7b1	-0.011777804
159	0xbb6d007e	-0.0036163623
160	0xbb6f71a4	-0.003653624
161	0xbb9ee014	-0.0048484895
162	0x3ac353be	0.0014902276
163	0xbc4b937e	-0.012425302
164	0xbb8cfae1	-0.004302368
165	0x3e099efa	0.13439551
166	0xbbd21389	-0.00641102
167	0x3a2c9da7	0.00065847713
168	0xbc054d0e	-0.008136047
169	0xbb7630b5	-0.0037565653
170	0xbba1737e	-0.004927098
171	0xbbebde25	-0.0071981126
172	0xbbe45707	-0.0069683823
173	0xbba66be7	-0.005078781
174	0xba2cdaf4	-0.0006593906
175	0xbc88aaf8	-0.016683087
176	0xbcaec54c	-0.021334313
177	0xbc5f1968	-0.013616897
178	0x3df7b0b5	0.12094251
179	0xbbeef8a8	-0.0072928257
180	0x3d181602	0.037130363
181	0xbb2b3ecf	-0.0026129966
182	0xbbb72417	-0.005589019
183	0xbb380648	-0.0028079916
184	0xbadd1670	-0.0016867649
185	0xb9846dcb	-0.00025258804
186	0xbc1dd2de	-0.009632794
187	0x3c8c63b4	0.017137386
188	0xbb9e1292	-0.004823991
189	0x3b5fee19	0.0034169017
190	0xbc1dfecd	-0.009643269
191	0xbc8ee78b	-0.017444393
192	0xbb410a8a	-0.0029455745
193	0x3c83632a	0.016038496
194	0xbc63a02d	-0.013893169
195	0x3b05967a	0.002038388
196	0xbc185bdd	-0.009299246
197	0x3ab77f19	0.001399967
198	0xbb3e2c39	-0.0029018058
199	0x3d0cdd4d	0.034390736
200	0x39f8d289	0.00047459107
201	0xbc69ca94	-0.01426949
202	0xbbc8fe58	-0.0061338358
203	0x3cc2afe5	0.023765514
204	0xbd488245	-0.04895236
205	0x3c0fbfc2	0.008773746
206	0xb9698645	-0.00022270631
207	0x3b1763b4	0.00231002
208	0x3bab9cb4	0.0052371863
209	0xbd8ff51f	-0.07029175
210	0x3d2118f7	0.03933045
211	0xbcbcb520	-0.023035586
212	0x3c7cc2fe	0.015427349
213	0xbcf6d941	-0.030132892
214	0xbc89cd8b	-0.016821643
215	0x3c0d20bd	0.008613762
216	0xb92a7194	-0.00016254775
217	0x3b060852	0.0020451737
218	0xbb838d50	-0.0040146485
219	0xbcc5cd43	-0.024145728
220	0x3c05192d	0.008123678
221	0x3c0cf99a	0.0086044315
222	0x3c29cf8a	0.010364423
223	0x3d25aa27	0.040445473
224	0x3cb1d46c	0.021707736
225	0xbc3e82d3	-0.011627871
226	0x3c99c421	0.01877028
227	0xbc57bdf2	-0.013167845
228	0xbbd63e87	-0.0065382156
229	0x3ba9eaf4	0.0051854793
230	0xbb888f49	-0.0041674715
231	0x3cbd0342	0.023072843
232	0x3b1c29c6	0.002382861
233	0x3c69fd46	0.0142815765
234	0xbb9777b2	-0.004622423
235	0xbb0d436d	-0.0021555081
236	0x3b3b4aa0	0.0028578416
237	0xbbb20db6	-0.0054337634
238	0x3c0a54f3	0.008443105
239	0xbaeffcdd	-0.0018309612
240	0xbbfe6bdf	-0.007764324
241	0xbc50064e	-0.012696816
242	0x3d25b4b6	0.040455543
243	0x3a58879f	0.0008259955
244	0xbc00b2c0	-0.007855117
245	0xba8e89ff	-0.0010874866
246	0x3be402c4	0.0069583375
247	0xbc065527	-0.008199013
248	0xbc34d28e	-0.011036528
249	0x3d43332c	0.047656223
250	0xbc4a463a	-0.012345845
251	0x3ca1e8bc	0.019764297
252	0xbc6a5af9	-0.014303916
253	0x3bcb9d20	0.006213799
254	0xbc878f88	-0.016547933
255	0xbd06c876	-0.03290602

motion_transformer.transformer.1.fc0.fc.bias f4 [50]
0	0xb4ebad99	-4.389847e-07
1	0x3446d01e	1.85159e-07
2	0x3508ea3e	5.1004815e-07
3	0xb503d4fe	-4.911125e-07
4	0x3332c98b	4.1627157e-08
5	0xb504a27f	-4.9410295e-07
6	0xb3ffa393	-1.1904117e-07
7	0xb5bc35e8	-1.402278e-06
8	0xb6735b42	-3.626294e-06
9	0x346c031a	2.1980341e-07
10	0x3384d69c	6.185766e-08
11	0xb5f80c81	-1.8481079e-06
12	0x34a469b5	3.0624292e-07
13	0x353e5d2d	7.0916104e-07
14	0x3517c218	5.6534327e-07
15	0xb5c55e6b	-1.4705123e-06
16	0xb5e421be	-1.6997144e-06
17	0x35d361a5	1.5749143e-06
18	0x35730443	9.0530756e-07
19	0xb614337a	-2.2083682e-06
20	0xb42a879f	-1.5881822e-07
21	0x35acad98	1.2865521e-06
22	0xb50aa86f	-5.165411e-07
23	0x34d6c677	4.0005008e-07
24	0xb503e0e5	-4.912857e-07
25	0xb65f6ac7	-3.3291742e-06
26	0x3584b557	9.887543e-07
27	0xb4a05ac5	-2.9868366e-07
28	0xb72bc51b	-1.0238286e-05
29	0xb3d6722a	-9.985918e-08
30	0xb419869c	-1.4298206e-07
31	0x356dd65b	8.860131e-07
32	0xb63325ae	-2.669501e-06
33	0x35267127	6.200448e-07
34	0xb40db499	-1.319735e-07
35	0xb59198cd	-1.0847813e-06
36	0x3519200e	5.704359e-07
37	0x36419129	2.8843735e-06
38	0x35fc1f88	1.878464e-06
39	0xb53779a6	-6.8349834e-07
40	0x3402e2c1	1.2189686e-07
41	0xb66a2e7c	-3.4895775e-06
42	0xb59382ff	-1.0990478e-06
43	0xb64323c6	-2.9078087e-06
44	0xb6aea727	-5.205063e-06
45	0xb61d60d4	-2.3451184e-06
46	0xb51941de	-5.709279e-07
47	0x35b7c130	1.3690787e-06
48	0x34ab1514	3.1866568e-07
49	0xb68d42f7	-4.209923e-06

motion_transformer.transformer.1.norm0.alpha f4 [1, 66, 1]
0	0x3e561b13	0.20908765
1	0x3e047a5a	0.12937298
2	0x3da137b4	0.07871953
3	0x3d96bc7e	0.07360171
4	0x3d575e50	0.052580178
5	0x3e652f71	0.22381379
6	0x3dc690fa	0.09695621
7	0x3def8e7a	0.11697097
8	0x3c9ddd2e	0.019270506
9	0x3d7b4f73	0.061355066
10	0x3dbba2ce	0.09161912
11	0x3de49464	0.11161116
12	0x3e02adf2	0.12761667
13	0x3d71731f	0.05894768
14	0x3d6abcd3	0.057308983
15	0x3e0f8815	0.14016755
16	0x3df38e28	0.118923485
17	0x3e18450e	0.14870092
18	0x3baae9af	0.0052158455
19	0x3dba6681	0.09101582
20	0x3dbddd6d	0.09270749
21	0x3e1c8042	0.15283301
22	0x3dc71044	0.09719899
23	0x3dd51ec1	0.104062565
24	0x3de8dca8	0.11370212
25	0x3d56a99e	0.052407853
26	0x3dccd3fb	0.100013696
27	0x3dea6773	0.114455126
28	0x3dd3024f	0.10303175
29	0x3e055901	0.13022234
30	0x3dee162b	0.11625322
31	0x3df4d62a	0.11954911
32	0x3e20ffd1	0.15722586
33	0x3c36486d	0.011125666
34	0x3df69581	0.12040234
35	0x3dad039e	0.084479555
36	0x3df6fd7d	0.12060068
37	0x3d3b7257	0.04576334
38	0x3dd88d3f	0.105738156
39	0x3e1c4a54	0.15262729
40	0x3dc60744	0.096693546
41	0x3d718125	0.058961052
42	0x3dd9bb0f	0.10631382
43	0x3d2720d0	0.040802777
44	0x3df2198b	0.11821278
45	0x3e35c563	0.17751078
46	0x3d90174f	0.07035696
47	0x3db52580	0.08845043
48	0x3e04fe13	0.12987547
49	0x3df51c36	0.119682714
50	0x3dc53352	0.09628929
51	0x3dfa0914	0.12208763
52	0x3e1487a2	0.14504865
53	0x3de91ae9	0.11382086
54	0x3d2884c9	0.04114226
55	0x3e03c726	0.12868938
56	0x3df5610f	0.11981403
57	0x3e357d94	0.17723686
58	0x3d221e2f	0.039579567
59	0x3e09ded2	0.13463905
60	0x3d8a83f0	0.06763446
61	0x3e05e455	0.13075383
62	0x3cd0455d	0.0254237
63	0x3e088164	0.13330609
64	0x3d49cf5d	0.049270023
65	0x3e0ff04f	0.14056514

motion_transformer.transformer.1.norm0.beta f4 [1, 66, 1]
0	0xbce73dd4	-0.028227724
1	0x3c2a79ce	0.010405017
2	0x3a154cb5	0.0005695329
3	0xba07d7ce	-0.0005181999
4	0x3ba4899e	0.005021288
5	0xbc4fa9a7	-0.012674726
6	0x3a41b9b8	0.000739004
7	0x3b641e53	0.0034808114
8	0x3c3f7abe	0.011686979
9	0x3b00b4e2	0.0019639065
10	0x3c359ee4	0.011085246
11	0xbb372648	-0.0027946401
12	0xbad23b86	-0.0016039468
13	0x3b3e1695	0.002900516
14	0xba84b32e	-0.00101242
15	0x3a7644bd	0.0009394398
16	0xbb6e9589	-0.0036405048
17	0xbd3667d6	-0.04453262
18	0x3ae5e3d7	0.0017539215
19	0x39fbb10e	0.00048006367
20	0x3bc2d307	0.0059455666
21	0x3ce75b44	0.028241761
22	0x3b6a117f	0.0035715995
23	0x3bfdbb2d	0.0077432604
24	0x3c2b5878	0.010458104
25	0x3c225b59	0.009909474
26	0x3cbcf231	0.023064705
27	0x3c0a502d	0.008441967
28	0x3b001740	0.0019545108
29	0x3bfd5101	0.0077306037
30	0xbc21c05d	-0.009872523
31	0x3bc3af34	0.0059718136
32	0x3bc8de55	0.0061300197
33	0x39657b74	0.00021885132
34	0x3bcfd656	0.0063426895
35	0x3bce22a5	0.006290751
36	0x3bb71089	0.005586688
37	0x3bc983c6	0.006149742
38	0xbb4faecf	-0.0031689887
39	0x3c15f0f0	0.009151682
40	0x3ba4decd	0.0050314427
41	0xbb1e548b	-0.0024159278
42	0xbb6703a8	-0.0035249982
43	0xbb370fb6	-0.0027932948
44	0x3a93b366	0.0011268675
45	0xbc00304a	-0.007824013
46	0xbc609503	-0.013707402
47	0xbbb2b5bb	-0.005453793
48	0xbc8a1a99	-0.016858386
49	0x3bc09526	0.005877155
50	0x3accd761	0.0015628153
51	0xbbca17ac	-0.0061673727
52	0xbb2b7bb6	-0.0026166267
53	0x3bcc7c64	0.0062404145
54	0xbb852630	-0.00406339
55	0x3c098a7b	0.008394833
56	0x3abc05ef	0.001434503
57	0xbbf5c2eb	-0.0075000427
58	0xbbc92a82	-0.0061391005
59	0xbb6590dc	-0.003502897
60	0x3c9cfc3d	0.019163245
61	0xbb9deaad	-0.0048192353
62	0x3c24d64e	0.01006086
63	0x3c48934e	0.012242151
64	0x3b6298f3	0.0034576028
65	0xbaac65b9	-0.0013152874

motion_transformer.transformer.2.fc0.fc.weight f4 [50, 50]
0	0xbc4570ab	-0.012050788
1	0xbb9f31f1	-0.0048582484
2	0xbc721eef	-0.014777883
3	0x3c423d0d	0.011855376
4	0xbbeab1a3	-0.007162289
5	0xbb86c87b	-0.0041132546
6	0xb8f7cb72	-0.000118157725
7	0x3b9ba2c2	0.004749627
8	0x3b1b385c	0.0023684716
9	0xbcacf2aa	-0.021111805
10	0x3cad386e	0.021145072
11	0x3c1f1fc2	0.0097121615
12	0x3c4b25d1	0.012399153
13	0xbc4a2a61	-0.0123392055
14	0x3c882b01	0.016622068
15	0xbc476b3a	-0.012171561
16	0x3c83b4b9	0.016077386
17	0xbc862b6b	-0.016378125
18	0x3ca84b97	0.020543857
19	0xbccdda66	-0.025128555
20	0x3cc5b3cf	0.024133591
21	0x3c9b113b	0.018929115
22	0x3c85730f	0.016290216
23	0x3bb3d082	0.0054875026
24	0xbcbddd24	-0.023176737
25	0xbd0d3108	-0.034470588
26	0x3c6b7e8b	0.014373432
27	0x3c823054	0.015892185
28	0x3c0f7b2f	0.008757397
29	0xbad3872f	-0.001613831
30	0xbcbc4074	-0.022979952
31	0x3ba26798	0.004956197
32	0x3c3c9108	0.0115091875
33	0xbaf89144	-0.0018964191
34	0x39cc26b0	0.00038938737
35	0x3ccc887c	0.024967425
36	0x3c245d8f	0.010032072
37	0x3cfe999a	0.031079102
38	0x3b254a1a	0.002522117
39	0xbcb72a0a	-0.022358913
40	0xbbd62e65	-0.0065362924
41	0xbc94250d	-0.018084073
42	0xbc441171	-0.011967049
43	0xbc8f5bfd	-0.017499918
44	0xbc82c53e	-0.015963193
45	0x3b51e02d	0.0032024488
46	0x3d246305	0.040133495
47	0x3c07f960	0.008299202
48	0x3cc06b01	0.023488523
49	0xba0e446f	-0.00054270675
50	0xb815bb07	-3.569855e-05
51	0xbc216ad5	-0.009852131
52	0xbcdc712b	-0.026909431
53	0x3ce0c462	0.027437393
54	0xbaa7a7ce	-0.0012791099
55	0x3a97e371	0.0011588169
56	0x3d0e2db1	0.034711543
57	0x3bf2374c	0.007391846
58	0xba8cd3c3	-0.0010744262
59	0xbc5f7365	-0.013638352
60	0xbbdb1e82	-0.0066869864
61	0x3af48cc6	0.0018657676
62	0xbc1fd70f	-0.009755864
63	0xbcb0b122	-0.021568839
64	0xbc1c9aa9	-0.009558358
65	0xbb8bb004	-0.004262926
66	0x3c79b5cc	0.015241098
67	0xbc8c43c7	-0.017122163
68	0xbbd7363e	-0.0065677455
69	0x3bb3cb12	0.0054868544
70	0x3bec1bbd	0.007205455
71	0x3c6f4d1b	0.014605786
72	0x3b843007	0.0040340456
73	0xbaf6641d	-0.0018798147
74	0xbcc34b26	-0.023839545
75	0x3bce9608	0.006304506
76	0xbc27a302	-0.010231735
77	0x3c08be6b	0.00834618
78	0x3d00cd95	0.03144606
79	0x3a1c7d15	0.00059695664
80	0xbc928063	-0.017883485
81	0xb91f2499	-0.00015177055
82	0x3ccabeb3	0.024749136
83	0x3c78ec90	0.01519312
84	0x3c9b3ad7	0.018948955
85	0x3c9141bb	0.017731538
86	0x3c970e82	0.018439535
87	0x3cf3e7e2	0.029773656
88	0x3cc9cb23	0.024632996
89	0x3b161193	0.0022898659
90	0xbb2b12f7	-0.0026103833
91	0xbc08d57b	-0.008351679
92	0x3bff512f	0.0077916603
93	0xbc769183	-0.015049341
94	0x3bbea005	0.0058174157
95	0x3c34ae19	0.011027836
96	0x3d1edd87	0.038785484
97	0x392229c7	0.00015465087
98	0x3a3177d0	0.00067698676
99	0x3baff0aa	0.0053692656
100	0x3b4e5bb5	0.0031487767
101	0xb8fa3386	-0.00011930526
102	0xbc8bbcf2	-0.01705787
103	0x3d083d7c	0.03326176
104	0x3c598314	0.01327588
105	0x3cd2e0d9	0.025741981
106	0x3ce1d98e	0.027569558
107	0x3b8e9738	0.004351523
108	0xbbef637b	-0.00730556
109	0xbbbff5c3	-0.0058581545
110	0x3ca42b2a	0.020040113
111	0xbade80f0	-0.0016975682
112	0x39e023da	0.0004275132
113	0x3c39b1a3	0.011333856
114	0x3c495fc2	0.012290897
115	0xbc4ed32d	-0.01262359
116	0xbcdb1e65	-0.026747892
117	0xbbcc8c97	-0.0062423456
118	0x3c29c6f0	0.010362372
119	0x3c3e1abf	0.011603056
120	0x3ba3908e	0.0049915975
121	0x3babb8c3	0.005240531
122	0x3c0a73d7	0.00845047
123	0x3c0830fa	0.008312458
124	0x3c4f3903	0.01264787
125	0xbc31e96c	-0.010858875
126	0xbb26813b	-0.0025406617
127	0x3b9e663e	0.0048339656
128	0xbb037e1a	-0.0020064176
129	0x3c0c4fa4	0.00856391
130	0xbc5533a7	-0.013012803
131	0xbcaa8933	-0.020817375
132	0x3bd30448	0.0064397193
133	0x3bd7271b	0.006565941
134	0xbc3d55e7	-0.011556125
135	0x3b096694	0.0020965682
136	0x3af757f9	0.0018870822
137	0x3d47d9e8	0.048791796
138	0x3b8e4030	0.004341148
139	0xbd378a73	-0.04480977
140	0x3bbbe792	0.0057343924
141	0x3ca55d63	0.020186132
142	0x3ce9c2be	0.028535243
143	0x3b5f9f33	0.003412199
144	0x3bad05d9	0.005280238
145	0x3cbe4fdf	0.023231445
146	0x3cae8028	0.021301344
147	0x3a3fdb05	0.0007318708
148	0x3cee69d9	0.029103206
149	0x3c7249e1	0.014788122
150	0xbc59ba24	-0.013289008
151	0xbbf4c20c	-0.0074694213
152	0xbba26fcf	-0.0049571763
153	0xbd12c2a5	-0.03583016
154	0xbc95f7bb	-0.018306604
155	0xbbaf1a5e	-0.0053437194
156	0xbd456a83	-0.04819728
157	0xbc6d2a92	-0.014475482
158	0x3c1f99c2	0.009741249
159	0xbc7369dc	-0.014856782
160	0xbd01e4f7	-0.0317125
161	0xbc049617	-0.008092425
162	0xbc2ef0ab	-0.010677497
163	0x3bae0c0d	0.005311495
164	0xbcb957a4	-0.022624798
165	0x3d12d6c1	0.035849337
166	0xbc86295f	-0.01637715
167	0x3c819012	0.015815768
168	0xbd0477ec	-0.03234093
169	0x3bb0835b	0.0053867525
170	0xbc8fc2e8	-0.017548993
171	0x3c2c6f4d	0.010524583
172	0x3c1fb120	0.00974682
173	0xbc0e5f2c	-0.008689683
174	0x3ce5045e	0.027956184
175	0x3c1fbf54	0.009750206
176	0xbb9e6412	-0.0048337067
177	0xbab4e74d	-0.0013801843
178	0xbcdbced8	-0.02683203
179	0xbbd01082	-0.006349624
180	0xbbaf7a11	-0.0053551276
181	0xbbdfdc71	-0.0068316986
182	0xbcae93f9	-0.021310793
183	0xbc921179	-0.017830597
184	0xbc44a0c3	-0.012001219
185	0x3b73fa2b	0.003722797
186	0xbcc09edc	-0.02351325
187	0xbc9219d6	-0.017834585
188	0xbc590c40	-0.0132475495
189	0xb952a81a	-0.00020089783
190	0x3b77762c	0.0037759645
191	0x3b7b61f1	0.0038357938
192	0xbc14a52f	-0.009072586
193	0x3c3ca14b	0.011513065
194	0x3c9d79f0	0.019223183
195	0x3c26d61f	0.010182886
196	0xbc529215	-0.0128522115
197	0x3c24e9fe	0.010065554
198	0x3d02e497	0.03195628
199	0x3a60bef1	0.00085733744
200	0xb974ee76	-0.00023358487
201	0x3b6dbde7	0.003627652
202	0xb9b3b5bb	-0.0003427694
203	0xbcd3b7c4	-0.025844462
204	0x3c57d79e	0.013173966
205	0x3bbbe4a1	0.005734042
206	0xbcefb74c	-0.029262207
207	0xbc92cdb6	-0.017920356
208	0x3c941a64	0.01807899
209	0xbc13e87a	-0.009027595
210	0x3c483902	0.012220623
211	0x3b989b11	0.004657157
212	0x3b746c5e	0.0037296037
213	0x3cd9f227	0.026604725
214	0x3b6e122b	0.0036326747
215	0xbb9de135	-0.0048181065
216	0xbbeb3825	-0.007178324
217	0xbc554e1b	-0.01301911
218	0x3c43e3ab	0.011956136
219	0xbc823934	-0.015896417
220	0x3c3a4b0b	0.011370431
221	0x3bc7f83f	0.0061025913
222	0x3c143a40	0.009047091
223	0x3c312843	0.010812822
224	0xbc41cdcb	-0.01182885
225	0xbcaac64c	-0.020846508
226	0x3cda1ab7	0.026624067
227	0x3bcd3439	0.006262329
228	0xbb1441c4	-0.0022622207
229	0xbc96c0f1	-0.018402549
230	0x3c74b668	0.014936067
231	0xbcdd7f90	-0.027038366
232	0x3bc26f7d	0.0059337006
233	0xbc0aac2b	-0.0084639
234	0x3add665c	0.0016891467
235	0xba2e92c3	-0.00066594424
236	0xbc926a95	-0.017873088
237	0xbd0ca4ba	-0.034336783
238	0xbc1ad1da	-0.009449447
239	0x3c806c2b	0.015676579
240	0xbc1d372c	-0.0095956735
241	0xbc60fe46	-0.0137324985
242	0xbcd8bf8f	-0.02645853
243	0x3c533e21	0.012893231
244	0xbc9b8d7e	-0.018988367
245	0xbbbc0e6d	-0.0057390244
246	0xbc694e35	-0.014239837
247	0x3cc562f7	0.024095042
248	0xbbd0115e	-0.0063497266
249	0xbd276daa	-0.04087607
250	0x396b9fb1	0.00022470836
251	0x3bf52dfb	0.007482288
252	0x3cf5cabe	0.030003902
253	0xbd04cea3	-0.032423627
254	0xbc622071	-0.01380168
255	0xbd35d0d8	-0.044388622

motion_transformer.transformer.2.fc0.fc.bias f4 [50]
0	0xb4380c9a	-1.714092e-07
1	0xb48f555c	-2.6697933e-07
2	0x3599c1dd	1.145581e-06
3	0xb459b960	-2.0277139e-07
4	0xb5058398	-4.9737855e-07
5	0xb55926b6	-8.089513e-07
6	0xb3ecabef	-1.1020881e-07
7	0xb504e6f6	-4.9509924e-07
8	0x35cd4871	1.5294773e-06
9	0x352af30d	6.368362e-07
10	0x33705fa5	5.5966343e-08
11	0x35022434	4.8481456e-07
12	0xb4aa4d77	-3.172133e-07
13	0x35780ef2	9.240895e-07
14	0x34d79f25	4.0162664e-07
15	0xb3e29a1a	-1.0551976e-07
16	0xb5c23b1d	-1.4471331e-06
17	0x3450cfff	1.9447178e-07
18	0x35a96781	1.2621605e-06
19	0x34a1f3e9	3.0166055e-07
20	0x3543ade1	7.289619e-07
21	0xb5579fe4	-8.0326413e-07
22	0x35abf685	1.281224e-06
23	0x358705d8	1.0059985e-06
24	0xb398825f	-7.101766e-08
25	0x3592bd7c	1.0932995e-06
26	0xb4c36e8c	-3.6402014e-07
27	0x3594be30	1.1082211e-06
28	0xb56f2ed2	-8.910257e-07
29	0x36171328	2.2511904e-06
30	0x353280f8	6.649784e-07
31	0xb4f1e3f9	-4.505562e-07
32	0x34559477	1.9891182e-07
33	0xb41527f0	-1.3891236e-07
34	0x33523dc0	4.8950596e-08
35	0xb58ca7e5	-1.0479677e-06
36	0x34b1b711	3.3102017e-07
37	0xb5bb2de0	-1.3945937e-06
38	0xb5341346	-6.708327e-07
39	0xb601a68c	-1.931944e-06
40	0xb558d923	-8.0782246e-07
41	0xb4e5eca6	-4.2826758e-07
42	0x34dc4f88	4.103606e-07
43	0xb3f7247e	-1.1508472e-07
44	0xb48a1773	-2.5721565e-07
45	0x35bf9722	1.4274594e-06
46	0xb5971519	-1.1256517e-06
47	0x34f03692	4.474319e-07
48	0xb50fc606	-5.3559813e-07
49	0x3579aea4	9.3013864e-07

motion_transformer.transformer.2.norm0.alpha f4 [1, 66, 1]
0	0x3e503c0c	0.20335406
1	0x3d9bdd07	0.07610517
2	0x3d6419b6	0.055688582
3	0x3d8de1e3	0.0692785
4	0x3d8d54ba	0.06900926
5	0x3da35807	0.07975774
6	0x3d71727c	0.05894707
7	0x3d4aa3ce	0.049472623
8	0x3c0a949b	0.008458282
9	0x3d83b974	0.06431857
10	0x3d8ff3c0	0.070289135
11	0x3d8ec0bb	0.06970354
12	0x3d96438c	0.07337102
13	0x3d884f8c	0.06655797
14	0x3d65ed75	0.05613466
15	0x3d96dd56	0.07366435
16	0x3dd7b041	0.10531665
17	0x3d7ac031	0.061218444
18	0xbb4df0fe	-0.003142416
19	0x3d7e6fa9	0.062118206
20	0x3d3b0bda	0.0456656
21	0x3d8994cf	0.06717836
22	0x3d774bc3	0.060374986
23	0x3d83e848	0.064407885
24	0x3da091b0	0.07840288
25	0x3db22ae1	0.08699585
26	0x3d233862	0.039848693
27	0x3d580835	0.0527422
28	0x3d887156	0.06662242
29	0x3da8c432	0.08240546
30	0x3d35e421	0.044407014
31	0x3d5337f9	0.05156705
32	0x3d9ad6c9	0.07560498
33	0x3bad2c99	0.0052848575
34	0x3da5f494	0.0810329
35	0x3d9eb25a	0.077488616
36	0x3da4ca42	0.0804639
37	0x3d442315	0.04788502
38	0x3da5738e	0.08078681
39	0x3ded349f	0.11582302
40	0x3d7ef703	0.062247287
41	0x3d2c2121	0.04202378
42	0x3d5e4b57	0.05427107
43	0x3d5bd2ec	0.053667948
44	0x3dc08831	0.094009764
45	0x3d8d478e	0.068984136
46	0x3d411a03	0.047143947
47	0x3d87aa62	0.06624295
48	0x3e1154a2	0.14192441
49	0x3d696100	0.056977272
50	0x3dbbf591	0.091776974
51	0x3da981cb	0.08276709
52	0x3dc43ed9	0.095823
53	0x3d87cd07	0.06630903
54	0x3d0eb79c	0.034843072
55	0x3da9b9ed	0.08287416
56	0x3d8b2a72	0.06795205
57	0x3db27b21	0.08714891
58	0x3cdf9cdb	0.027296474
59	0x3de1d52f	0.1102699
60	0x3d03aa2d	0.032144714
61	0x3d9c7f5a	0.07641478
62	0x3cd53006	0.026023876
63	0x3d64ad0b	0.05582909
64	0x3d9d144c	0.07669887
65	0x3dea8dc9	0.114528246

motion_transformer.transformer.2.norm0.beta f4 [1, 66, 1]
0	0x3bfec496	0.0077748997
1	0x3d0cc991	0.034371916
2	0xbb768136	-0.0037613637
3	0x3be39afb	0.0069459653
4	0x3c3b9810	0.011449829
5	0xbc791be1	-0.015204401
6	0x3bca64f8	0.006176587
7	0x3b815150	0.003946461
8	0x3b9448d0	0.0045252815
9	0x3a3c366e	0.00071797415
10	0xbbae598d	-0.005320734
11	0xbc038262	-0.008026691
12	0xbbd39a9e	-0.006457641
13	0x3c02c433	0.007981348
14	0xbbfe2f52	-0.007757106
15	0xbc56b6e3	-0.013105127
16	0xbc0c8bc7	-0.008578247
17	0xbd162710	-0.036658347
18	0x3ad57ca8	0.0016287761
19	0xbc003a6c	-0.007826429
20	0x3ad26b67	0.0016053737
21	0x3c95c036	0.01828013
22	0x3c2207c8	0.0098895505
23	0x3c363bba	0.011122638
24	0x3cf30a0d	0.029667879
25	0x3be3997a	0.006945786
26	0x3b442a01	0.0029932263
27	0x3b85d711	0.004084476
28	0xbbba2661	-0.0056808447
29	0xba89352f	-0.001046812
30	0xbc2d7468	-0.010586835
31	0xbbdde006	-0.0067710904
32	0x3c78c2be	0.015183149
33	0x3bd83ef1	0.0065993
34	0xbbd0e54a	-0.0063749896
35	0x3cb7e10b	0.022446176
36	0xbc0ca1a5	-0.008583461
37	0xbbce3b78	-0.0062937103
38	0xbc06c340	-0.008225262
39	0x3cd2deaa	0.02574094
40	0x3c3aa343	0.011391464
41	0x3ba79810	0.005114563
42	0xbd061dca	-0.032743253
43	0x3c382b03	0.011240724
44	0xbc198ff1	-0.009372697
45	0xbd097aa6	-0.033564232
46	0x3bce9d75	0.0063053914
47	0x3cb7e837	0.022449596
48	0x3d33ab64	0.043864623
49	0x3b0f0e21	0.002182849
50	0x3c4360da	0.011924947
51	0xba3e2bbc	-0.0007254442
52	0xbb8055e8	-0.003916491
53	0x3bfa7227	0.0076430026
54	0x3c4f279b	0.01264372
55	0x3bc31134	0.0059529785
56	0x3b1afcb0	0.0023649149
57	0x3c60909b	0.013706352
58	0x3b55c5cc	0.0032619117
59	0xbcba86a5	-0.022769282
60	0x3b5aed17	0.0033405477
61	0xbcfe00bb	-0.031006208
62	0xbc68086f	-0.014162167
63	0x370cc11b	8.389611e-06
64	0xbbd06d30	-0.0063606724
65	0xbcbbad2a	-0.02290972

motion_transformer.transformer.3.fc0.fc.weight f4 [50, 50]
0	0x3bba0d2f	0.005677841
1	0xbbb45380	-0.005503118
2	0xbc474dae	-0.012164516
3	0xbbb77ee9	-0.0055998457
4	0xba3ec0c9	-0.0007276652
5	0x3b6ab0a9	0.0035810864
6	0x3c1ce1bd	0.009575305
7	0x3caa2d2e	0.020773496
8	0xbafb625f	-0.0019179097
9	0xbc7e00b5	-0.015503098
10	0xbaa47a04	-0.001254857
11	0xbb426b15	-0.0029665877
12	0xbcb590d5	-0.022163788
13	0xbb609930	-0.0034270994
14	0xbaf47f72	-0.0018653704
15	0xbb311894	-0.0027022706
16	0x3c965404	0.018350609
17	0xbcbc9cac	-0.023023926
18	0x3c18bf6e	0.009322984
19	0x3ab2457c	0.001360103
20	0x3ce466d5	0.027881065
21	0x3ca60fe4	0.02027125
22	0x3b091a59	0.0020920245
23	0xbc81f75e	-0.015865024
24	0xbc7a7357	-0.015286288
25	0x3a4ad98c	0.00077381055
26	0x3c1aa742	0.009439291
27	0x3c68ed4e	0.014216734
28	0x3c80b501	0.01571131
29	0xbb7aaa2b	-0.00382484
30	0xbc808be2	-0.015691701
31	0x3ba35239	0.004984167
32	0x3ca13e82	0.019683126
33	0x3c2e5e4d	0.0106426
34	0x3c20127d	0.009770033
35	0x3cc3cb7e	0.023900744
36	0x3c56dfb7	0.013114861
37	0x3c04d297	0.008106849
38	0x3c56ba83	0.013105991
39	0xbc0d9dda	-0.008643592
40	0x38d2c1ae	0.00010049656
41	0x3cbf67d9	0.023364948
42	0x3b4df935	0.0031429057
43	0xbc875d34	-0.016523935
44	0xba3fd73b	-0.00073181436
45	0xbb20b771	-0.0024523402
46	0x3d00b3f0	0.0314216
47	0x3d0c69b3	0.03428049
48	0x3c6c6bfb	0.014430041
49	0xbbb3ec96	-0.0054908497
50	0xbc08195a	-0.0083068255
51	0xbd366dde	-0.04453837
52	0xbc29b62a	-0.010358373
53	0x3c582f69	0.013194897
54	0xbca42f96	-0.020042222
55	0xb9e8e2fd	-0.00044419608
56	0xbd15cbf8	-0.036571473
57	0x3bd3d1e3	0.0064642294
58	0x3bebe881	0.0071993475
59	0x3b9217d6	0.004458408
60	0xbc9801c9	-0.018555539
61	0xba3fd499	-0.00073177513
62	0xbc5c7536	-0.01345568
63	0xbc59aa80	-0.013285279
64	0xbca821cb	-0.020523926
65	0xbd08775b	-0.03331695
66	0x3d02843c	0.03186439
67	0xba47ba1b	-0.00076189794
68	0xbd0fe7b8	-0.035133094
69	0x3beea09b	0.0072823293
70	0xba9d4341	-0.0011998193
71	0x3cc11141	0.023567798
72	0x3c0c740d	0.008572591
73	0x3c27d61f	0.010243922
74	0x3c08b5b8	0.008344106
75	0xbbeac6e2	-0.007164822
76	0xbad20730	-0.001602387
77	0xba61ddbf	-0.00086161116
78	0xbc6be1c7	-0.014397091
79	0xb9ae863f	-0.00033287887
80	0x3b5a2bcb	0.0033290263
81	0x3bc08708	0.005875472
82	0x3935f124	0.00017351337
83	0x3b7c9bd8	0.0038545039
84	0x3be3be40	0.00695017
85	0x3c1daebc	0.009624179
86	0x3c3b1a25	0.011419808
87	0x3c5f9fd9	0.0136489505
88	0x3b8ff08c	0.004392689
89	0x3c1f3282	0.009716632
90	0x3c898608	0.016787544
91	0xbc8de2de	-0.017320093
92	0xbcccce53	-0.025000727
93	0xbc60bba7	-0.013716615
94	0xbcda10f3	-0.02661941
95	0xbc9cb55b	-0.019129446
96	0x3c09c02b	0.008407633
97	0x3be90aa4	0.007111864
98	0x3ca4aba5	0.020101378
99	0x3cade816	0.021228831
100	0xbc0cf438	-0.008603148
101	0x3c55c0ab	0.013046424
102	0xbc2ca79f	-0.010538011
103	0xbc268df7	-0.010165683
104	0xbb84e1ea	-0.0040552514
105	0x3c2702a6	0.0101935025
106	0xbb99b826	-0.0046911417
107	0x3b035e99	0.0020045398
108	0xbbd6ddd2	-0.0065572048
109	0x3cac3245	0.021020064
110	0xbc9ba96c	-0.019001685
111	0xbc66d855	-0.0140896635
112	0x3c41f7f1	0.011838899
113	0xbc39671a	-0.011316085
114	0x3cc9ad5c	0.024618797
115	0xbcd2625c	-0.025681667
116	0x3b942299	0.004520726
117	0x3cf2a8ae	0.029621448
118	0xbad0c765	-0.0015928565
119	0xbc58ee7c	-0.013240453
120	0x3c546983	0.012964609
121	0xbc103d7f	-0.008803724
122	0xbb99accc	-0.0046897884
123	0xbc10624b	-0.008812497
124	0x3b4c986c	0.003121878
125	0x3a5cd0bb	0.0008423437
126	0xbd490b2b	-0.049082916
127	0x3c3326a7	0.010934508
128	0xbcc52697	-0.024066253
129	0xbcb2d895	-0.02183179
130	0x3d13f78f	0.036124762
131	0xbb03a63a	-0.0020088092
132	0xbcb2f79a	-0.021846581
133	0x3c452c41	0.012034477
134	0x3b9a34e6	0.004706013
135	0x3b0853f4	0.0020801993
136	0x3a40af71	0.00073503616
137	0x3b152816	0.0022759489
138	0x3c077b5b	0.008269156
139	0x3ccd2afd	0.025044912
140	0x3cb31a84	0.02186323
141	0xbd20958f	-0.03920513
142	0xbcdcebac	-0.026967846
143	0x3b99fb02	0.004699112
144	0x3cf1e790	0.029529363
145	0x3cd5fc0a	0.026121158
146	0x3cd83aa5	0.026395151
147	0x3bab8285	0.005234065
148	0xbb371ed4	-0.002794196
149	0xbca2ceb4	-0.019873954
150	0x3bf86314	0.0075801704
151	0xbca24ed4	-0.019812979
152	0x3c9f94e5	0.019480178
153	0xbcec83ed	-0.0288715
154	0xbb99d8c3	-0.0046950295
155	0xbc0dd09b	-0.008655692
156	0xbcda9368	-0.026681617
157	0xbc77a729	-0.015115538
158	0xbcc46a69	-0.023976522
159	0x3d16dcac	0.036831543
160	0xbcda0ea8	-0.026618317
161	0xbca43942	-0.020046834
162	0x3c3a2f29	0.011363783
163	0xbc71a233	-0.014748144
164	0xbc6e9e13	-0.014564055
165	0xbc8dc039	-0.017303573
166	0xbc388b33	-0.011263656
167	0x371178d1	8.670803e-06
168	0xbc66be8e	-0.014083518
169	0x3c9b3dad	0.018950308
170	0xbc751c2e	-0.014960332
171	0xbc217741	-0.0098550925
172	0xbbe5b587	-0.007010165
173	0xbbdf06c2	-0.0068062255
174	0xbcfced0b	-0.03087475
175	0xbc4f9932	-0.012670802
176	0x3c901625	0.017588684
177	0x3c03fb3b	0.0080555035
178	0xba2a1eb3	-0.000648956
179	0xbaf4322b	-0.0018630674
180	0x3c6a88cb	0.014314841
181	0xbb25cbfe	-0.002529859
182	0xbc96ed4f	-0.018423704
183	0xbd15269b	-0.03641377
184	0x3a4acb20	0.00077359565
185	0x3bd38709	0.0064553064
186	0xbc90856e	-0.01764175
187	0x3ba05cd5	0.004893879
188	0x3cb6454b	0.022249838
189	0x3c095b66	0.0083836075
190	0x3c1f533a	0.009724433
191	0x3b6df60b	0.0036309983
192	0xbc6bffa9	-0.014404216
193	0xbb2f53f2	-0.0026752916
194	0x3ba88c03	0.005143644
195	0xbb6854a7	-0.0035450847
196	0xbd1ceae1	-0.038309935
197	0xbc030bd1	-0.007998423
198	0xbb940a05	-0.004517796
199	0xbb4a832f	-0.0030900945
200	0xbc4d1d18	-0.0125191435
201	0xbd0228cb	-0.031777184
202	0x3bcb0452	0.0061955834
203	0x3b90eb4f	0.004422582
204	0xbc8fecb4	-0.017568924
205	0x3ac4ebe2	0.0015023912
206	0xbc78564b	-0.015157293
207	0x3ba2cf71	0.0049685766
208	0x3c010ef7	0.007877103
209	0xbcc99050	-0.024604946
210	0x3b739ff2	0.0037174192
211	0x3c2f1b85	0.0106877135
212	0xbd1fc428	-0.03900543
213	0x3b7d388b	0.0038638439
214	0xbbdf9f2b	-0.006824394
215	0x3c5e88dc	0.0135824345
216	0x3c8ddca4	0.017317124
217	0xbc055d7b	-0.008139963
218	0x3b55358d	0.003253314
219	0x3bc651d0	0.0060522333
220	0xbbf7ddda	-0.0075642886
221	0xbc4c5b02	-0.01247287
222	0x39b98a07	0.00035388788
223	0xbc40cbf1	-0.011767373
224	0x3c712db2	0.014720367
225	0x3b9ce0e4	0.0047875512
226	0xbc880f48	-0.01660885
227	0x3b17dc95	0.0023172249
228	0x3a8f46e4	0.0010931161
229	0x3c1880e2	0.009308072
230	0xbba5802a	-0.0050506787
231	0x3cd928aa	0.026508648
232	0x3cd90a37	0.026494129
233	0xbcd785c3	-0.0263089
234	0x3b0cbc01	0.0021474364
235	0x3b8c08e8	0.0042735226
236	0xbb5ec958	-0.0033994522
237	0xbc2b39a2	-0.010450752
238	0xbbb3123e	-0.005464821
239	0x3b702d22	0.0036647995
240	0x3bc146b2	0.00589832
241	0x3c98f5af	0.018671839
242	0x3bd165ee	0.006390325
243	0xbc40a1bb	-0.01175731
244	0xbc40cec0	-0.011768043
245	0xbd34d497	-0.044148054
246	0xbd27c624	-0.040960446
247	0xbc080fa8	-0.008304514
248	0xbcba4b4b	-0.02274098
249	0x3d1c554c	0.038167283
250	0x3c80e6e2	0.015735094
251	0xbb9043df	-0.004402622
252	0xbbdf16d5	-0.0068081417
253	0x3a69204b	0.00088930567
254	0xbc6a7428	-0.01430992
255	0xbc912869	-0.017719464

motion_transformer.transformer.3.fc0.fc.bias f4 [50]
0	0x3519667a	5.7146065e-07
1	0xb130e72d	-2.574278e-09
2	0x346c6485	2.2015782e-07
3	0x3575abdf	9.151972e-07
4	0x348ff06f	2.6810764e-07
5	0x358e5df4	1.0607168e-06
6	0x35041f97	4.92198e-07
7	0x3580bb54	9.591263e-07
8	0xb26d8acd	-1.3826775e-08
9	0xb48af412	-2.5882088e-07
10	0xb55a1875	-8.124692e-07
11	0xb5a0e6e0	-1.1988122e-06
12	0xb515027e	-5.551045e-07
13	0x338cb468	6.552074e-08
14	0x34a925b5	3.1506138e-07
15	0x33728ea5	5.647475e-08
16	0x3597606f	1.1278443e-06
17	0xb51d8b18	-5.8689466e-07
18	0xb40db05a	-1.3195805e-07
19	0x34979044	2.823091e-07
20	0xb523ccbd	-6.1020165e-07
21	0x34394716	1.7255329e-07
22	0x34b664b7	3.397342e-07
23	0x3253009b	1.2281954e-08
24	0x35547473	7.914561e-07
25	0x350346ee	4.890452e-07
26	0xb457d297	-2.0100047e-07
27	0xb4e2ff51	-4.2281548e-07
28	0x34092af7	1.277475e-07
29	0xb41214cc	-1.3604875e-07
30	0x337a4e2a	5.827875e-08
31	0xb594168d	-1.1033422e-06
32	0xb4649fc9	-2.1292284e-07
33	0x3413b6d3	1.3756953e-07
34	0x3544ffd5	7.3387974e-07
35	0x331007f8	3.353486e-08
36	0x32dae2eb	2.548173e-08
37	0x35cfbc06	1.5477424e-06
38	0xb39ab765	-7.204543e-08
39	0x3541424e	7.199459e-07
40	0xb44f23ed	-1.9291447e-07
41	0xb438a32e	-1.71957e-07
42	0x3524bc1a	6.1368485e-07
43	0xb4fd600c	-4.7194806e-07
44	0x3502f2df	4.87822e-07
45	0xb5178d7a	-5.645776e-07
46	0x3568d9ca	8.674366e-07
47	0xb527f52e	-6.256913e-07
48	0xb58023fa	-9.547214e-07
49	0x34d42388	3.951393e-07

motion_transformer.transformer.3.norm0.alpha f4 [1, 66, 1]
0	0x3e2b450f	0.16725563
1	0x3d519b8f	0.051173743
2	0x3cd9e076	0.02659629
3	0x3ced2b97	0.02895145
4	0x3d1873b1	0.037219707
5	0x3e101742	0.14071372
6	0x3ce8334b	0.02834477
7	0x3cc8fda7	0.024535013
8	0x3b8c2673	0.0042770444
9	0x3d0e4bb8	0.03474018
10	0x3d48fe87	0.04907086
11	0x3d175c54	0.036953285
12	0x3d20fab7	0.0393016
13	0x3c9f8552	0.019472752
14	0x3d07a64d	0.03311758
15	0x3d3726b3	0.04471464
16	0x3dbfd0c1	0.093659885
17	0x3d2b7919	0.041863535
18	0xbb36e276	-0.0027905977
19	0x3d336549	0.043797765
20	0x3cb11077	0.021614296
21	0x3d1e78ec	0.03868954
22	0x3c9ea5fc	0.019366257
23	0x3d03d00a	0.032180823
24	0x3d781c1d	0.060573686
25	0x3d7dbb05	0.061945934
26	0x3cd5608d	0.026047016
27	0x3d04ce52	0.032423325
28	0x3d6442dc	0.055727825
29	0x3d8b3801	0.06797791
30	0x3d2702eb	0.040774267
31	0x3ce8c931	0.028416248
32	0x3d8a1a8b	0.06743344
33	0xbba8a49e	-0.005146577
34	0x3d9d2306	0.07672696
35	0x3d2f546d	0.042805124
36	0x3d58c3d6	0.05292114
37	0x3cccc1dd	0.024994785
38	0x3d78861e	0.06067478
39	0x3daed4c4	0.085366756
40	0x3d154ceb	0.036450308
41	0x3d2fa6cd	0.042883683
42	0x3d1539b4	0.036431983
43	0x3d1caca0	0.038250566
44	0x3dacafcb	0.08431967
45	0x3dca40b7	0.098756246
46	0x3d257da7	0.040403035
47	0x3d82da39	0.06389279
48	0x3d944a50	0.072407365
49	0x3cf2fdd1	0.029662045
50	0x3d9de895	0.07710377
51	0x3d9e9872	0.077439204
52	0x3dbf0335	0.093267836
53	0x3d136947	0.035989072
54	0x3c13dcf9	0.009024852
55	0x3d57be20	0.05267155
56	0x3d0ab731	0.03386611
57	0x3d7c498d	0.06159358
58	0x3c851d62	0.016249362
59	0x3dc7f90f	0.09764301
60	0x3d046b37	0.03232881
61	0x3d8e022c	0.06934008
62	0x3d14ca51	0.036325756
63	0x3d12451d	0.035710443
64	0x3d236d1f	0.039898988
65	0x3dbb353b	0.09141012

motion_transformer.transformer.3.norm0.beta f4 [1, 66, 1]
0	0xbcbadca9	-0.022810297
1	0xbc5e1a81	-0.013556124
2	0xbbcec3a5	-0.0063099437
3	0x3b3db547	0.002894716
4	0xbba7ee2f	-0.0051248292
5	0xb99e053b	-0.00030140005
6	0x3a48bb10	0.0007657269
7	0x3a2e6d3f	0.0006653852
8	0xbac8b689	-0.0015313189
9	0x3b5a4cf5	0.003331003
10	0xbb20573d	-0.002446606
11	0x3bd861c4	0.0066034514
12	0x3b60bbf7	0.0034291723
13	0xbb520324	-0.003204533
14	0x3ba1bead	0.0049360604
15	0x3c2f226c	0.010689359
16	0x3c5248fa	0.012834782
17	0xbbae712e	-0.0053235507
18	0xbac04a48	-0.0014670575
19	0x3c3c6ca9	0.011500516
20	0x3b90a994	0.0044147465
21	0xbbef903d	-0.0073108957
22	0xbb753c90	-0.0037420131
23	0xbb52a2a1	-0.0032140391
24	0xbbfb4770	-0.007668428
25	0xba54f3b1	-0.0008123471
26	0xbb0a9b8c	-0.0021149842
27	0xbb5054f6	-0.0031788922
28	0x38dca739	0.00010521565
29	0xbc43fabe	-0.011961637
30	0x3cacdf0d	0.021102453
31	0x3bec519a	0.007211876
32	0x3a6da809	0.0009065872
33	0x3b278026	0.002555856
34	0xbc18cffa	-0.009326929
35	0x3cfa4dba	0.030554641
36	0x3b8b0e91	0.00424368
37	0xbcb0f17a	-0.02159952
38	0xbb9df1dd	-0.004820092
39	0x3be676b1	0.007033192
40	0xbbb68e85	-0.005571189
41	0x3c06a92c	0.008219045
42	0xbbf88126	-0.007583755
43	0xb99107ee	-0.00027662463
44	0x3c3e3a17	0.011610529
45	0x3bcf1641	0.0063197915
46	0x3b9999eb	0.004687538
47	0x3b793ec0	0.0038031787
48	0xba7df93d	-0.00096883235
49	0xbb01b0f7	-0.0019789317
50	0xbc0b40e1	-0.008499355
51	0xba9c50c8	-0.001192593
52	0x3c18a45d	0.009316531
53	0xbb0474af	-0.002021115
54	0x3ae2a734	0.0017292262
55	0x3b0d735a	0.0021583647
56	0x3b31783c	0.0027079722
57	0xbc6f9eb7	-0.014625243
58	0xbb883022	-0.0041561285
59	0x3c3103e1	0.010804147
60	0x3c3b757f	0.0114415875
61	0x3cd1e2dd	0.025620872
62	0xbb6aa07d	-0.0035801225
63	0x3b4fa89c	0.0031686192
64	0x3adfb355	0.0017066995
65	0x3c01186c	0.007879358
