checkpoints/h36m_model_40000.pth (torch, 625202 bytes, 196 tensors)

motion_transformer.transformer.0.fc0.fc.weight f4 [50, 50]
00000000: 270a c2bb 0240 0dbd 892e ec3c 0717 c3bc
00000010: fbf9 4c3c 369b c6bc 4eb9 813c 2ee2 0ebd
00000020: 5af0 213d 595a 04bd 4bb7 3b3c d407 60bc
00000030: b157 2dbc 4e85 44bc 026e f8bb 4d3f 61bc
00000040: f25f 28bc 8a06 72bc 1385 70bc b921 7cbc
00000050: 0cfb 6dbc 14a0 5fbc 62fa 21bc 641c 84bc
00000060: 994d bebb bc93 7bbc 10c1 b5bb af1d 8cbc
00000070: c33f e1bb 99cb 87bc 59ad c4bb 8e3d 70bc
00000080: 4ff9 07bc 8105 56bc bcd7 2cbc 6757 3cbc
00000090: 5457 28bc aef0 1abc 546d 2ebc a593 21bc
000000a0: 129f 18bc 9dc0 17bc 49e2 28bc d33c cbbb
000000b0: 155c 45bc 4037 eabb e3b2 22bc ef06 d9bb
000000c0: 874b f1bb c7bf 1fbc 8993 5b3c 2582 99bd
000000d0: 5085 d73c 17be 66bc 3549 d53c fe58 d3bc
000000e0: 271c 0e3d 7f6e 35bc b8b3 3b3a 5d2c 06bc
000000f0: 0df9 983a 2142 243c 9a61 76bc bcf6 4f3c
00000100: 19da 10bc c82e 23bc bbe6 fb3a 1b45 98bb
00000110: 6718 25bb b54e dcbb 69a3 febb 0383 86bb
00000120: d8bf 19bc 3619 a0bb 9efc 3fbc 9d02 fbba
00000130: 3794 45bc e641 30bb 0d8a 08bc 43e6 eabb
00000140: 59e7 42bc b2d3 05bc 6833 36bc 8df7 15bc
00000150: 8fcb 02bc 1791 0dbc 78ea 19bc 344e 42bc
00000160: 78ed f6bb 1c6c 34bc 7af9 08bc 5c34 0abc
00000170: 58c1 e8bb f291 34bc 950d 09bc dd19 30bc
00000180: 9403 e3bb 5f6a 33bc 3d3a 3bbc 7cdc 14bc
00000190: 9007 d93b 3b9d e9bc f427 0d3c 6f68 a6bc
000001a0: 6a22 6dbb 19fd 95bb f6f7 913c b14f b43a
000001b0: 2ede 133c bb62 773b 1b30 60bc 4d3b eeb9
000001c0: 1bf7 06bc 19fb 20bc 3973 473b 7921 19bc
000001d0: b12d a7ba c340 2ebb a6ca 24bc e85c 0bbc
000001e0: 0e85 4dbc 18fe 51bb f33d 7ebc 4359 e1bb
000001f0: 49c4 62bc edef 59bc 17c4 4bbc e431 79bc
00000200: 1c6f 2bbc 6156 82bc 7932 1dbc 1b1d 5ebc
00000210: f787 55bc 859f 89bc c72d 5ebc c9d2 8abc
00000220: 30bc 2fbc 2245 90bc 1a58 3abc f356 7cbc
00000230: ad96 3abc c9e8 84bc a33a 3ebc 3d1b 84bc
00000240: 9689 2cbc b1bf 68bc 38d9 6cbc 46f4 82bc
00000250: 8fe0 62bc c572 83bc d415 3fbb d3d3 213b
00000260: df80 c0bc fbcc 20bc 31cf 89bc 8d09 63bc
00000270: fed0 dcbc 0211 803c 8f09 83bb f336 63ba
00000280: 1445 eabc d5c3 283c 623c ffbc 17c5 07bb
00000290: 3e64 b4bc 4b58 5ebb ffe9 0abc 1fb1 8cbb
000002a0: 9d41 77bc d121 0cbc 0569 3dbc 10fd 28bc
000002b0: 0a25 1abc 496e 89bb 2d65 47bc 4104 3ebb
000002c0: 8b37 61bc 9e37 cabb 3933 fabb 285e e9bb
000002d0: 2801 41bc cd60 0bbc f220 0fbc 22c2 03bc
000002e0: 7a52 0cbc 07ca ddbb 6d13 36bc 99da babb
000002f0: cf06 1dbc ab96 e6bb 6c6a 3cbc 677f cfbb
00000300: a4d7 2cbc ef50 fcbb 07bb 39bc 61b8 08bc
00000310: 2f48 22bc 1471 06bc 9300 20bc 4657 0bbc
00000320: 997e 86bb 6095 273a 7d9c 83bc dda1 8bba
00000330: 37b4 40bb c33e fc3b ac31 d2bc 3722 8e3c
00000340: 20b3 ec3c 2f7b cf39 7ed5 25bc 8a93 b73c
00000350: 0a15 a9bb 7da5 a13c 5f74 baba 10e2 873c
00000360: 10f4 c4ba 6f82 853c d452 db3b 961f 6c3c
00000370: c9cd 393b 093c 323c b207 1d3c 0c9f 8e3c
00000380: a987 b83b 9095 623c b052 073c ca01 f23b
00000390: f9e9 173c 4eaa 473c baf6 043c 4b91 253c
000003a0: c9c5 243c 960a 0e3c fc54 ff3b 164b 163c
000003b0: 0eea 723c 561c cf3b 28cf 4c3c 54fe d03b
000003c0: 3f96 4b3c 21c1 013c 78d4 253c 6207 ba3b
000003d0: 720e 343c 293a c63b 156d 2d3c 02e5 153c
000003e0: a113 1d3c a606 eb3b 17e0 34bb ea73 f93b
000003f0: ca60 9dbc 23b1 233c 6ea0 07bc 3712 8aba
-0.0059216204 -0.03448487 0.028830783 -0.023814691 0.012510772 -0.024243932 0.01583543 -0.03488367
0.039535858 -0.032312725 0.011457275 -0.013673741 -0.010579989 -0.011994673 -0.0075814733 -0.013748002
-0.010276781 -0.014772067 -0.014680165 -0.0153888995 -0.014525186 -0.013649005 -0.009886356 -0.016126819
-0.00580759 -0.015355047 -0.0055466965 -0.017103998 -0.006874056 -0.016576575 -0.00600211 -0.014663113
-0.008299186 -0.013062836 -0.010549482 -0.011495448 -0.010274727 -0.009456797 -0.010646183 -0.009861861
-0.009315269 -0.009262231 -0.010307857 -0.006202319 -0.01204588 -0.0071476996 -0.009930345 -0.006623141
-0.00736374 -0.009750313 0.013401874 -0.07495526 0.026308686 -0.014083407 0.026035884 -0.02579927
0.034694817 -0.011073708 0.0007160264 -0.008189288 0.0011670903 0.010025532 -0.015037918 0.012693103
-0.008841061 -0.009959884 0.0019218543 -0.00464691 -0.0025191547 -0.00672325 -0.007770945 -0.0041049733
-0.009384118 -0.004885818 -0.0117179435 -0.0019150559 -0.012059263 -0.0026894747 -0.008333695 -0.0071685626
-0.011895978 -0.008168148 -0.011120655 -0.009153259 -0.007983102 -0.008640549 -0.009394281 -0.011859465
-0.0075356327 -0.011012103 -0.008360261 -0.008435335 -0.0071031265 -0.011021124 -0.008365055 -0.010748354
-0.006927917 -0.010950654 -0.011427459 -0.009085771 0.006623216 -0.028517356 0.008615483 -0.02031347
-0.0036183842 -0.0045772907 0.017818432 0.001375666 0.00902514 0.0037748057 -0.013683344 -0.0004543908
-0.0082376255 -0.009825491 0.0030433668 -0.009346359 -0.0012754706 -0.0026588894 -0.010058081 -0.008506037
-0.01254393 -0.003204232 -0.0155176995 -0.006877096 -0.013840743 -0.013301832 -0.012436888 -0.015209649
-0.010463502 -0.01591033 -0.009594553 -0.013556744 -0.013032905 -0.016799698 -0.013560719 -0.016946213
-0.01072602 -0.01761109 -0.011373544 -0.01540159 -0.011388463 -0.016224282 -0.01161066 -0.01612627
-0.01053085 -0.014205859 -0.014456086 -0.01598562 -0.013847484 -0.016045937 -0.0029157298 0.0024692907
-0.02349895 -0.009814496 -0.01682243 -0.013857258 -0.026955124 0.01563311 -0.003998942 -0.0008667551
-0.028597392 0.010300596 -0.031156722 -0.002071684 -0.022020455 -0.0033927138 -0.008478641 -0.0042935754
-0.015091327 -0.008552984 -0.011560683 -0.010314241 -0.009408245 -0.004194055 -0.012170118 -0.0028994235
-0.013746153 -0.006171181 -0.0076355007 -0.00712182 -0.011780061 -0.008506966 -0.008735882 -0.00804189
-0.008564586 -0.0067684683 -0.01111303 -0.0057023284 -0.009584143 -0.007037004 -0.011499982 -0.006332326
-0.01054946 -0.0077000777 -0.011336095 -0.008344741 -0.009904905 -0.008205671 -0.009765762 -0.008504694
-0.004104447 0.0006392803 -0.01606583 -0.0010653097 -0.0029404291 0.0076979115 -0.025658451 0.0173503
0.028894007 0.00039573896 -0.010121701 0.02240922 -0.0051599788 0.019732231 -0.0014225355 0.016587287
-0.001502635 0.016297547 0.0066932235 0.014411828 0.0028351417 0.010878571 0.009584354 0.017409824
0.0056314063 0.013829604 0.00825946 0.007385467 0.009272092 0.0121866 0.008115465 0.010105441
0.010056921 0.008669516 0.0077921133 0.009173175 0.014826311 0.0063205166 0.012500562 0.0063779745
0.012425958 0.007919581 0.010121457 0.0056771496 0.010989772 0.0060494137 0.010585089 0.009148838
0.009587199 0.0071724234 -0.0027599388 0.007612695 -0.019211192 0.009990963 -0.0082779955 -0.0010533993

motion_transformer.transformer.0.fc0.fc.bias f4 [50]
00000000: 082c 74b6 f3a1 1736 5dec f935 ce16 4f36
00000010: 0fb5 08b6 5a49 6db6 57bd 1a36 5be6 3036
00000020: 2fa9 4237 700a a335 41db 10b6 aa75 2135
00000030: f91c 9936 cede 5236 5f97 3c36 47ab 3b35
00000040: 566e bab7 dfdc 03b5 ded5 a3b4 c949 2236
00000050: f16b 92b4 9741 0036 871d a0b6 d707 9b35
00000060: 1558 81b6 e75d 60b5 cd9e 8637 f7e1 8f37
00000070: 46f6 6eb5 8cb3 20b5 29b5 d2b5 65e6 30b7
00000080: a6bb 3a36 0880 9735 7ad5 f536 d34a a0b7
00000090: 9d48 5436 fa68 b138 d54e 9cb6 cd85 1736
000000a0: 366f 4634 93e6 2537 c6ca ef35 c92c 85b6
000000b0: 22c1 0736 7aef dfb6 09f3 ce35 56cb 46b6
000000c0: e11e 2b35 57cd 3636
-3.6384463e-06 2.259502e-06 1.8620736e-06 3.0858678e-06 -2.037097e-06 -3.5358448e-06 2.3057999e-06 2.6360128e-06
1.1602692e-05 1.2147484e-06 -2.1585295e-06 6.01484e-07 4.563128e-06 3.1422128e-06 2.8102293e-06 6.991217e-07
-2.2224307e-05 -4.912271e-07 -3.0516725e-07 2.418283e-06 -2.7273157e-07 1.9111665e-06 -4.771809e-06 1.1550682e-06
-3.8547537e-06 -8.358315e-07 1.6047992e-05 1.7152151e-05 -8.9020284e-07 -5.986592e-07 -1.5698944e-06 -1.054406e-05
2.7825386e-06 1.1287639e-06 7.326421e-06 -1.9108329e-05 3.1632728e-06 8.459571e-05 -4.6583395e-06 2.2578636e-06
1.8480645e-07 9.888451e-06 1.7865902e-06 -3.9689226e-06 2.0228986e-06 -6.6737966e-06 1.5418929e-06 -2.9622656e-06
6.37474e-07 2.7239637e-06

motion_transformer.transformer.0.norm0.alpha f4 [1, 66, 1]
00000000: d318 133e 05e1 9d3d 2931 163e 6988 633e
00000010: b15d f93d 8b3f 0f3e 29db 223e b326 1a3e
00000020: aa29 66ba 56d6 063e 80cf 173e 9430 043e
00000030: 4d55 2e3e e370 223e 26ba 803e 8d55 ba3d
00000040: 6ef2 213e aa47 173e 8546 55bd 4c8b a53e
00000050: 22a5 093e 8c32 2d3e 3340 d03d 45f8 133e
00000060: c4fe 293e bd51 1e3e afe0 303e 7d40 2f3e
00000070: 648c fd3d cd90 003e ca57 123e 6163 193e
00000080: c71f 303e 4b44 9f3d 835f 3b3e 6e39 323e
00000090: 98e4 063e b2f5 083e b1f3 0a3e 4ad3 573e
000000a0: 84fe 553e e204 b03d 4e70 2a3e d1be 053e
000000b0: ef1a 153e fbe5 6e3e af2f 9b3e 3e26 473e
000000c0: 2feb 253e fb05 003e 5a06 103e 6abf 1d3e
000000d0: a728 f43d 52d2 183e 0f97 e23a 9338 203e
000000e0: 3254 343e c5a3 153e d1fb f43d 774d 2f3e
000000f0: 8a9b 0a3e 2909 133e 8328 133e eb58 093e
00000100: b239 4d3e 97e3 113e
0.14364938 0.07708935 0.1466719 0.22220005 0.12176073 0.13989083 0.15903915 0.15053825
-0.0008780012 0.131677 0.14825249 0.12909156 0.17024727 0.15863375 0.2514202 0.09098349
0.15815136 0.14773431 -0.052069206 0.32332838 0.134419 0.16913813 0.10168495 0.14450176
0.16601092 0.15460868 0.1727321 0.17114444 0.12380293 0.12555237 0.14291301 0.14979316
0.17199622 0.07776698 0.18298154 0.1740472 0.13173139 0.13374975 0.13569523 0.21076694
0.20897871 0.08594681 0.16644403 0.13061072 0.14561056 0.23329918 0.30309817 0.19448182
0.16202997 0.12502281 0.14064923 0.1540505 0.11921816 0.14923981 0.0017287451 0.15646581
0.17610243 0.14613254 0.11962093 0.17119394 0.13535896 0.14358963 0.14370923 0.13412826
0.2004154 0.14246975

motion_transformer.transformer.0.norm0.beta f4 [1, 66, 1]
00000000: 188d 5a39 67c9 0bbb 8bb1 4d3a 81ba c939
00000010: 0ac0 6dba 7469 4f3a fd8d 983a c0f8 7d3b
00000020: fb9e 5ebd e94d d4b7 4614 8435 0afc f7b8
00000030: 967e 6639 b6f1 f9b9 d682 40ba 9dd3 ee39
00000040: e7f2 033b f2d7 7dbc 6277 abbb 9b28 0e3a
00000050: ae82 3d3a 5dc2 de3b d76e 253a 01e5 d33a
00000060: 807c cd38 f5a0 f83a b432 ea3a a6e6 4ebb
00000070: ce08 10bb bb11 1039 b372 0d3a 1486 1eba
00000080: 7543 913a 264c 8a3b 3027 df39 43eb b73a
00000090: df39 08bb 1a3f 073b 9da9 98bb 9f09 78ba
000000a0: ad0c 653b 7a5f aa3a 063b 12ba b389 9339
000000b0: f30e 123a 1e96 6d3a 5696 83bb 3873 7bbb
000000c0: 10aa 5bba c4e6 bfba dd32 9cb9 1db9 053b
000000d0: 74e6 c1ba c307 bcb8 d483 7e3d 32c0 e3b9
000000e0: 4d2b 7837 82b1 263a 6d75 533b b370 503a
000000f0: 1a99 163b 3dd9 97ba 0297 c9b8 19b6 43ba
00000100: e9f3 4139 7f9f 7c3a
0.00020842662 -0.0021329762 0.00078465854 0.00038476664 -0.00090694486 0.0007912137 0.0011638995 0.0038753003
-0.054350834 -2.530865e-05 9.840667e-07 -0.00011824824 0.00021981666 -0.0004767307 -0.0007343715 0.00045552562
0.0020133795 -0.01549338 -0.0052327374 0.0005422921 0.00072292506 0.0067980723 0.0006310767 0.0016166271
9.798352e-05 0.0018968867 0.0017867894 -0.0031570583 -0.0021977904 0.00013739515 0.00053958147 -0.0006047201
0.0011082726 0.0042205034 0.00042563071 0.0014031905 -0.0020786447 0.0020636977 -0.0046588914 -0.0009461883
0.0034950182 0.0012998425 -0.0005578253 0.0002814062 0.00055716856 0.0009063202 -0.004015724 -0.0038368236
-0.00083795283 -0.0014640917 -0.00029792535 0.0020404526 -0.0014793412 -8.965984e-05 0.06213744 -0.0004344001
1.4792034e-05 0.0006358848 0.0032266036 0.0007951364 0.002297944 -0.0011585128 -9.612554e-05 -0.00074657943
0.00018496778 0.0009636804

motion_transformer.transformer.1.fc0.fc.weight f4 [50, 50]
00000000: bc78 3fbd c018 20bd 1329 e13b 25d8 9dbc
00000010: 017d 3b3c 7af6 75bb 4db9 73bc 9d0c ecbc
00000020: 6137 7fbd 5fd8 33bb 8223 b5bb 82bf 2fbc
00000030: 8054 25bc 4263 183c 4b68 1abb 4af9 f33b
00000040: 6f16 c83c 9f8d 36bb 5ff0 3bbc 8e05 9139
00000050: 0c90 b2bb da2b 2c3c 7ccd dd3b 7e6f 293c
00000060: 4994 103c b215 f73b 3dd4 db3c 142e c2b8
00000070: fb56 023d 7a88 543c 750d b1bb d31e 71bb
00000080: c799 3dbc b39e 5e3b c861 fcbb 39c1 303b
00000090: 50d4 5e3a 2cd6 87bc 8ad8 143b 8f1d 7abb
000000a0: d81d 92bb 7e8e 32bc 391f 91bc 4a3b 24bb
000000b0: 580b 23bc c1d9 73ba 3b4a 39bc 5fb5 babb
000000c0: bf3f 7cbc 0e39 163c 61b9 f5bc 9369 91bc
000000d0: dc45 edb7 193e acbb 314c 763b b800 42ba
000000e0: 4217 893c 4870 88bb 9245 23bd 68d5 a23c
000000f0: f8f6 9cbc e575 d8bb 1fe8 ac3b 358e 473b
00000100: 4868 753c f658 16bc 171b 74bc f98d 003c
00000110: e4dd d139 c9da 56bc 3105 503c 6b0a d4bb
00000120: a1a2 613b 0680 26bc 0f16 4c3c 0c5d 30bc
00000130: 7bb1 19bb cce8 aebc 0121 ca3c 4a1b 51bb
00000140: 74d2 6bbc 903c a0bb 770b bebc f6ef 073b
00000150: 06a5 94bc d495 f1bb ec6b 82bc 7c4a 283d
00000160: 696f 8cbc 494d 8f3c 8dc9 063c 03b4 75bc
00000170: 1360 8bbc cdb0 01bc d2ec 23bc eb48 1dbc
00000180: a465 7dbb 6842 39bc de85 d4bb 0b8d 483c
00000190: d44b 28bc 96eb 3abd 458b 03bd 3a6b ebbb
000001a0: 281e ad3c 5679 9a3c 75b7 7eb9 5199 d53c
000001b0: 4cee dd3b 8bdc 8a3b 5d3a 113a 5e28 1cbd
000001c0: 4b66 323c 9b37 d63b b586 8fbc 31f5 1dbb
000001d0: 20a0 93bc 3802 98bb 5900 91bc b70e 00bc
000001e0: 98e1 b83c 38cf c93b 9d79 d13c 45ba 62bc
000001f0: 7dca c63a 818b 663c 78ea 8f3b 875c ce3b
00000200: c8e0 ae3c 835d 04bc 6dec 0bbc a02e afbb
00000210: 36d9 f33a fa7a 313c 3616 80bc 63f7 65bc
00000220: c981 43bb 3bbf 94bb 0260 f6ba e374 363a
00000230: 3d4f cbbb 2971 02bb a322 50bc 6419 473a
00000240: ca9b 5d3b 90c4 8ebb 19a8 b1bc d1ce 7cbc
00000250: 0bd6 89bb 101b 06bc 8bfb 60ba a3fe a73b
00000260: 1f2c 043d 6b18 69bc 27f8 1bbd 2d35 dcbc
00000270: 2d2c 803c 10cd 1bbd 14cc bcba 2cea 30ba
00000280: 77d6 403c c9db 4d3b ecea 08bd bfef e2bb
00000290: 5a10 533d 069e 8fbc 44d5 703c aa1c 2138
000002a0: c309 89bc ffb8 b2bb 537a 02bd 06cd eeba
000002b0: 3c1f f53c e8d0 893c 9e6f 5f3c efea 693c
000002c0: 770d 12bc 79fb 7e3c bf77 913c 938d 2fbb
000002d0: 2c8e 9bbc bc53 8dbc ff3f f6ba e72d b3bc
000002e0: 8378 fd3b b8d2 d33c a865 3abc 5923 0bbc
000002f0: a7f3 8e3b d054 c33c b71d 0cbb 2d6b a6bc
00000300: b6cb b33a c7f0 76bc 8fa8 61bc 578b 1b3c
00000310: aae2 9fbb 4a79 f0bb 4bc1 623b 2336 8ebc
00000320: 8aab b33c e52c 9c3b 43a8 afba 71a9 96bc
00000330: 8304 0fbd 5890 95bb 6004 9b3b 3550 f9bc
00000340: bd56 c4ba 7eb5 86bc d841 033c 963c 31bb
00000350: a773 cfbc b7a1 a93c c2ba 1f3c 21af df38
00000360: 640b 2cbd 1a09 34bc a791 a83c 275c 343c
00000370: 925d 733c 9a57 353c b28b cc3b 8c46 17bc
00000380: 06d0 c1bc 5d02 64bc c9ac 05bd fe1a a5bb
00000390: 6a3c 65bc 9776 323c bae9 783c 577e 1b3c
000003a0: a7aa e73b f1bd 793b a8ed bbbb 0ef6 c6bc
000003b0: 52f8 833c f589 7dbb e6b9 ef3b ca93 89bb
000003c0: c05c a9bb 5a6f 703c 97d4 4b3c 06fc 07bb
000003d0: 45e0 1f3c 3990 f3bb 453f e23b 9fe7 b93b
000003e0: 957b d23b 02bf 24b9 43a4 a33b c7a0 ad3a
000003f0: 9451 d83c fa63 07bd 3bda d23b 0628 3ebd
-0.046746 -0.039086103 0.0068713515 -0.019268105 0.0114433775 -0.0037530945 -0.014875722 -0.028814608
-0.062308673 -0.00274422 -0.0055279145 -0.010726811 -0.010090947 0.009301009 -0.0023560699 0.007445489
0.02442476 -0.002785541 -0.011470883 0.00027660694 -0.0054493006 0.010508502 0.0067688804 0.010341523
0.008824416 0.007540428 0.026834602 -9.2592236e-05 0.031821232 0.012971992 -0.0054032155 -0.0036792054
-0.011572308 0.0033969104 -0.007702086 0.0026970638 0.0008500265 -0.016581617 0.0022712075 -0.003816459
-0.004459124 -0.010898231 -0.017715083 -0.0025059753 -0.009951435 -0.0009302162 -0.011309202 -0.0056978907
-0.015396058 0.009168876 -0.029995622 -0.017750537 -2.8285132e-05 -0.005256426 0.0037582035 -0.000740062
0.016734723 -0.0041637756 -0.03986127 0.01987715 -0.019160733 -0.006605851 0.0052766944 0.0030449752
0.014978476 -0.009176483 -0.014899037 0.007846349 0.00040028908 -0.013113686 0.01269655 -0.0064709685
0.003442921 -0.010162359 0.012456431 -0.010764372 -0.0023451734 -0.02135124 0.02467394 -0.0031907135
-0.014393438 -0.004890032 -0.023198826 0.0020742393 -0.018145096 -0.007372597 -0.015920602 0.04108666
-0.017142968 0.017492907 0.008226764 -0.014996531 -0.017013585 -0.007915688 -0.010005193 -0.0095999045
-0.003866532 -0.011307336 -0.006485685 0.0122406585 -0.010271985 -0.04563483 -0.03211524 -0.0071844133
0.021132544 0.018856686 -0.0002429167 0.026074084 0.006772792 0.0042377166 0.0005540008 -0.038124435
0.010888646 0.0065373904 -0.017520288 -0.0024102444 -0.01802069 -0.0046389364 -0.017700361 -0.007816008
0.022568509 0.0061587356 0.025570685 -0.013838355 0.0015166547 0.014071346 0.0043919645 0.006297651
0.021347418 -0.008078936 -0.008540255 -0.0053461343 0.0018604163 0.010832543 -0.015635591 -0.014036032
-0.0029831997 -0.004539398 -0.0018796923 0.00069601665 -0.0062045143 -0.0019903874 -0.012703571 0.0007595031
0.0033814781 -0.004356928 -0.0216866 -0.015430168 -0.004206424 -0.008185163 -0.00085824047 0.0051267906
0.03226864 -0.014227013 -0.038078453 -0.026880825 0.015646065 -0.03803736 -0.0014404082 -0.00067487615
0.011769882 0.003141152 -0.033427164 -0.0069255526 0.051529266 -0.017531406 0.014699284 3.8412087e-05
-0.016728288 -0.005454182 -0.03185494 -0.0018219061 0.02992212 0.016823247 0.013637451 0.014277204
-0.008914343 0.015562885 0.017757295 -0.0026787266 -0.018988691 -0.017251842 -0.0018787383 -0.021872474
0.0077353134 0.025857314 -0.011376776 -0.008492314 0.0043625417 0.023844153 -0.0021380016 -0.020314777
0.0013717327 -0.015072054 -0.013773098 0.00949367 -0.0048793154 -0.0073386775 0.0034600075 -0.017359799
0.021932382 0.004766094 -0.0013401586 -0.018391343 -0.034916412 -0.0045643263 0.004730746 -0.030433754
-0.0014979463 -0.016443964 0.008011304 -0.0027044169 -0.025323702 0.020706994 0.009749116 0.00010666089
-0.04200305 -0.010988498 0.020577265 0.011008299 0.014853852 0.011068249 0.006242239 -0.009233128
-0.023658764 -0.013916579 -0.032635484 -0.005038618 -0.013991455 0.010892532 0.0151924435 0.009490571
0.007069904 0.0038107599 -0.005735118 -0.02428725 0.01610962 -0.0038686965 0.007315862 -0.004198526
-0.0051685274 0.014674986 0.012440822 -0.0020749583 0.00975806 -0.007432964 0.006904515 0.0056733633
0.0064234235 -0.00015711415 0.0049939468 0.0013246768 0.026406087 -0.03305433 0.0064347065 -0.046424888

motion_transformer.transformer.1.fc0.fc.bias f4 [50]
00000000: 45ab a435 6f42 2636 dd06 bdb5 5c93 c535
00000010: ba49 e534 daf2 2235 ca74 1435 2793 f9b5
00000020: cecf 69b5 b6f0 9a35 936c 3fb6 6228 1c35
00000030: dca9 1a35 0542 9d35 10d6 65b5 03f6 67b4
00000040: ccce 86b5 fab6 9cb4 868f e034 0cf8 c2b5
00000050: 14ce 1b35 0b72 52b5 94a0 a135 c893 5b35
00000060: 5518 db35 f0ce f4b5 51de 7235 38e0 4bb6
00000070: 9a29 61b5 b2c5 20b6 e22b f0b4 920a fc32
00000080: c61c 9d35 50cd 33b6 2018 c8b2 8403 6eb5
00000090: da9a 82b4 3665 6235 5556 e634 dc33 b635
000000a0: 42fc c834 2806 e7b2 a498 3635 14b0 1335
000000b0: 2dae 95b5 6c01 5633 bdb0 53b5 c3dd c2b5
000000c0: 69c6 dab5 2b24 1836
1.2268798e-06 2.4774597e-06 -1.4083595e-06 1.4720531e-06 4.2708217e-07 6.07031e-07 5.5304247e-07 -1.8594773e-06
-8.710166e-07 1.154395e-06 -2.8524416e-06 5.8173293e-07 5.761665e-07 1.1716626e-06 -8.562065e-07 -2.160305e-07
-1.0043964e-06 -2.9190397e-07 4.1827678e-07 -1.4526317e-06 5.804188e-07 -7.839705e-07 1.2042169e-06 8.179891e-07
1.6323853e-06 -1.8239643e-06 9.047554e-07 -3.037987e-06 -8.387957e-07 -2.3956932e-06 -4.4735413e-07 2.9341468e-08
1.1705786e-06 -2.6792586e-06 -2.3294035e-08 -8.8667025e-07 -2.4327056e-07 8.433884e-07 4.2903653e-07 1.357515e-06
3.7436445e-07 -2.6894739e-08 6.8022405e-07 5.5017995e-07 -1.1152057e-06 4.982705e-08 -7.8860813e-07 -1.4518668e-06
-1.6300011e-06 2.2670818e-06

motion_transformer.transformer.1.norm0.alpha f4 [1, 66, 1]
00000000: 19a4 cb3d 08ee 983d 551e c73d 0dcf 453d
00000010: 935b 903d fbde e33d 3e0c de3d f08f ea3d
00000020: 8808 543b 4fd8 a13d f97c 0e3e 7c5b ce3d
00000030: 393e 943d 7000 693d 3154 2b3d e7d3 be3d
00000040: 192f 013e 6357 c63d 8e9a c93c 76f9 4e3d
00000050: 5ac5 d13d ebbc d83d e625 8d3d 27ff 223e
00000060: e63c cd3d a502 863d 9dbe c43d 116d f43d
00000070: 38a6 be3d 78c7 df3d 44c4 ad3d 1333 dd3d
00000080: 703b e53d 3da0 8b3d 5558 cf3d d887 ff3d
00000090: c08a 8d3d b7cb 953d 5e85 d93d b0eb 053e
000000a0: 9e63 a93d 0988 8a3d 7efa cc3d 274c cc3d
000000b0: cfda e23d e966 333e 0fdf 383d 15d1 053e
000000c0: 90b4 8c3d 41b7 b63d 7a25 d53d c9a7 e23d
000000d0: aa94 083e 2f33 db3d ee17 883c 8bfa ab3d
000000e0: a21b 033e 9847 d53d 6208 8c3d b2eb ae3d
000000f0: 8c81 c53d b48b eb3d 44a0 a23d d45a c53d
00000100: 13df 7d3d b453 e83d
0.099434085 0.07467276 0.09722582 0.048293162 0.070487164 0.111265145 0.10842179 0.11453235
0.0032353718 0.07902586 0.13914861 0.10076043 0.072384305 0.056885183 0.041828338 0.09317761
0.12615623 0.096846364 0.02460983 0.050530873 0.1024272 0.10582908 0.06891994 0.15917645
0.10021381 0.06543473 0.09606669 0.11934865 0.093090475 0.109267175 0.084847 0.10800757
0.111929774 0.068176724 0.1012427 0.12477082 0.0691123 0.07314246 0.10621141 0.13078189
0.082709536 0.06764228 0.10008715 0.099754624 0.11076891 0.17519726 0.0451346 0.1306804
0.06870377 0.08921672 0.10407539 0.11067159 0.13337961 0.10703122 0.016612973 0.08397397
0.1280351 0.10414046 0.068375364 0.08541049 0.0964385 0.11501256 0.079407245 0.09636465
0.06198032 0.1134409

motion_transformer.transformer.1.norm0.beta f4 [1, 66, 1]
00000000: df78 8ebb b59c 8abb ffc4 ff3a d75e 803b
00000010: f060 22bb 5f81 a03b 38ac 67bb 5436 a23c
00000020: 565c 90bc e82f 43bb 0d48 9e3a 1057 a53a
00000030: f3e1 bc39 de4d 043b 4b78 ebbb acbc 3036
00000040: 6ea4 2c3c c55d aabc e8a4 153a 0e58 dc39
00000050: 8f3c 033b 44ce 723c 7a8a 263b fa71 fc3c
00000060: 038b d5b9 e587 97bb ff34 7e3c 8250 1fbc
00000070: a5de 9dbb 525d 5e3a 38c6 d43a 3422 b13a
00000080: 725e 21bb 10fa 43bb 3199 e7bb c268 60bb
00000090: a9c3 933a ba9b c23b 4149 bebb b09f 7d3b
000000a0: 71f9 713b 88c4 513b 5755 02bb 9212 c1b8
000000b0: 09c5 653b b784 e23c 08e0 79bc d1b6 ffbc
000000c0: 0cb0 3cba 1fc4 3fbc de22 0cbb 9dee 733c
000000d0: 5e4f 34bc 0601 0a3b d91f 343c f47f 323b
000000e0: 1be6 9dba 84df 243b 05e1 70bb 0299 8a39
000000f0: 4047 463b c5f3 aebb b435 643b 0d03 57bb
00000100: 8c16 693b 04c5 6eba
-0.004347905 -0.0042301067 0.0019513665 0.003917556 -0.0024777018 0.0048982347 -0.0035350453 0.019801296
-0.017622154 -0.0029783193 0.0012075916 0.0012614448 0.000360265 0.0020188014 -0.007185971 2.6335865e-06
0.01053725 -0.020796666 0.0005708472 0.00042027276 0.002002511 0.014819685 0.0025412128 0.030816067
-0.00040730098 -0.004624354 0.015515565 -0.009723784 -0.004817801 0.0008482534 0.001623339 0.0013514222
-0.0024622944 -0.0029903688 -0.0070678224 -0.0034242128 0.0011273521 0.005938974 -0.0058070724 0.0038699917
0.003692236 0.003200801 -0.0019887292 -9.206416e-05 0.003506007 0.027651174 -0.015251167 -0.031215103
-0.0007197864 -0.011704474 -0.0021383087 0.014888433 -0.011005251 0.002105774 0.010993921 0.002723691
-0.0012046726 0.002515764 -0.0036755216 0.0002643541 0.003025487 -0.005339118 0.0034822049 -0.0032808215
0.0035566418 -0.0009108337

motion_transformer.transformer.2.fc0.fc.weight f4 [50, 50]
00000000: 53f6 c8bc 3391 9abc 5d07 da3c e76c b1bc
00000010: 4784 0a3b e48e b9bc c1e1 28bb 8cbe 86bc
00000020: 0b87 01bb 956e 353c e409 b5bc 0c8c 773d
00000030: 8bcb 013c 49ca 84bc 1633 523c 32a8 9e3b
00000040: 6c2c af3b 6669 80bc 77ea 8c3c 4512 80bc
00000050: 30bb 88bc a1a5 993b a801 09bd 1d20 3bbb
00000060: c034 7bbb 392c 74bb 3e9d d5bc 3b72 43bc
00000070: b2ea 4ebc 4467 5f3a a0b4 a7bc 59f4 e2bc
00000080: 6a1c b13c ca8e a038 cac7 ea3c 1756 39bc
00000090: 73f0 2db8 ddae 89bc 0faa 89bc 4f8a 51bb
000000a0: 954c 293c 26f6 1abc a65c c7bc b6dd 36bc
000000b0: 97f8 673c 6f2f 0cbb 1c0a af3c bf3c bb3c
000000c0: 2e83 a2bc 4531 0c3c 4410 3ebc d345 2e3c
000000d0: 1c25 c23c 789c 70bc d586 91bc 0efb 29bd
000000e0: bd48 07bd 8510 a23c d3fc 3b3c 9313 73bc
000000f0: aa4a 3939 8fa3 403d b2d7 1abc 5555 cc3c
00000100: 5c21 5ebb bc2e a4bb 4727 82bc 5d79 f1ba
00000110: 9cd2 293c ff70 c83c 6ce6 41bb f02c 083b
00000120: d2d5 453c 3e97 c93c a1a6 31bd 48d4 373c
00000130: 84b3 ff3b d6c7 48bc ffec f83c 8575 92bb
00000140: 53d8 263c 6b76 5e3c 2f41 b53c 844b 8d3c
00000150: 8686 593d a146 7c3c 3af1 58bc c124 f5bc
00000160: a51b 063c f6d3 f93b e325 9dbb 3572 173c
00000170: 2f77 543c 274a 7fbc 7867 2e3b b663 a4bb
00000180: 5580 ea38 73e9 ddb9 0980 c83c f8b2 32bc
00000190: 5b69 81bc b095 97bc 8aa8 5fbc daa3 9ebb
000001a0: 45ea 6d3c e5fb 35bc ae87 d2bb 51c1 9c3c
000001b0: 0d0d 4abc 7dd6 f83b a73c 10bc 7210 edb9
000001c0: bc1c 9bbc 4b27 533b 1eea cf3b 0fd9 08bd
000001d0: 0935 17bd 566e debc 4474 d6bc 0c3c 83bc
000001e0: 9d8f 5b3a ad14 523c 6096 6f3c ebad cdbc
000001f0: 8f4d e13c 9b6e c3bc 5a7a 15bd e1c6 bebb
00000200: f31e 17bc 355f 8fbc 463f 90bc 3886 d9bc
00000210: d9b4 89ba 5ba7 903c 3cba d1bc cdeb 4ebc
00000220: 5f3a babc 6a0c ad3c dc33 fdbb 303b f93b
00000230: 14b9 83bc a598 c13b d30e 4abc beec 1dbb
00000240: 1312 c8bb 1139 dcba 1a8c 5fbc 295f 1eba
00000250: 8a77 1dbc ee8b 653b 220e 91bb fcc0 84bb
00000260: 96f2 793c b547 1cbd 6de2 91bc 126e 903a
00000270: e4aa ddbb 5500 32bc f952 4dbc 7c1b f9bc
00000280: ce8b a33c 5131 d13b cdae 173c 3870 23bc
00000290: cb65 903b 1531 7fbc 0b64 c1bb 45b0 1bbb
000002a0: a061 85bc 8a8d 2e3c 3e5b eebc 5095 40bb
000002b0: 8773 b33b 4906 823c 3f54 a1bc d49e 2f3c
000002c0: c7b3 453c bd7b b3bc 8893 543c 89b5 573c
000002d0: 29d4 0d3c 0cd5 933c 5052 233d 5b48 893c
000002e0: 6771 393c 2490 2b3c e15e 843c 3393 f63c
000002f0: fe79 783a 1da4 8fbc a9ab d8bc 9505 13bd
00000300: f17e 323b b138 f2ba 0487 8d3c 7482 853c
00000310: a14e db3c d635 69bd 6674 31bc dc32 2a3c
00000320: fecc 023c 017d 7cbb e6b9 a9bc fad8 2c3c
00000330: d5d2 24bd 7e9f e4bc da09 91bc 8c64 dbbb
00000340: a8cd d9bb 9aad c4bc 3c7a 673c 10e5 6c3c
00000350: 80ac e8bb 9de6 9c3a c318 2c3d e89a 8f3c
00000360: 8252 953c 3720 c1bb 9b5f 87bc 9834 863c
00000370: e6e6 223c bea7 a0bb 43ed 143c 11a6 bf3c
00000380: 6537 1bbc f5a1 0ebb 655a 1c3c a03c 11bd
00000390: ea7f 44ba 5b91 373d 8d08 01b9 3382 833c
000003a0: d335 1ebb 5a17 4cbc 7bd9 99bc 824c c3bb
000003b0: 2df0 563d f04e af3b 2a5b d03a 7a64 d93c
000003c0: 35c8 42bd b6a6 293b 8f04 24bc dac9 423c
000003d0: 345e 0bbb 5e7b c9ba b4de c43b 7a30 393c
000003e0: 4978 a0bc f0c2 263c 0306 00bc 896d 4fbb
000003f0: 478b 0cbd 1f8b fd3a 344c 343c 275b aebc
-0.024531519 -0.018868065 0.02661484 -0.021658374 0.0021135972 -0.022651143 -0.0025769325 -0.016448282
-0.001976433 0.011073728 -0.022099443 0.060436293 0.007922064 -0.016209738 0.012829563 0.004841828
0.0053458717 -0.015675258 0.017201645 -0.015633712 -0.01669082 0.004688934 -0.033448845 -0.0028553077
-0.0038331002 -0.0037257804 -0.026075955 -0.01192909 -0.012629198 0.00085221627 -0.02047187 -0.027704405
0.021619994 7.655991e-05 0.02865972 -0.011312029 -4.147035e-05 -0.016807014 -0.016804723 -0.0031973307
0.0103332 -0.0094581 -0.02433617 -0.011161258 0.0141583895 -0.0021390577 0.021367125 0.022856114
-0.019837942 0.008556669 -0.011600558 0.010636765 0.023699336 -0.014685743 -0.017764488 -0.04149919
-0.033028353 0.019783268 0.011473852 -0.01483621 0.0001767079 0.04703098 -0.00945084 0.024943033
-0.0033894395 -0.005010454 -0.01588787 -0.001842301 0.010365155 0.024467943 -0.0029586805 0.0020778738
0.0120749045 0.02460825 -0.0433718 0.011220045 0.0078033824 -0.012254676 0.030386446 -0.004469576
0.010183412 0.013578038 0.022125809 0.017247923 0.053106807 0.015397699 -0.013241107 -0.029924752
0.008185302 0.0076241447 -0.004795776 0.009243538 0.012967869 -0.015581644 0.0026611965 -0.0050167693
0.00011181893 -0.00042326338 0.024475114 -0.010906927 -0.015797308 -0.018503994 -0.013651023 -0.00484131
0.014521186 -0.01110742 -0.0064248657 0.01913515 -0.012332213 0.0075939284 -0.008803523 -0.00045216415
-0.0189346 0.0032219465 0.0063450476 -0.03341013 -0.036915813 -0.027152222 -0.026178487 -0.016019844
0.0008375587 0.012822312 0.014623255 -0.025107345 0.027502803 -0.023856452 -0.036493637 -0.005822048
-0.009223687 -0.017501453 -0.017608296 -0.026553258 -0.0010506167 0.017657926 -0.025601499 -0.0126294615
-0.022732912 0.021124084 -0.0077271294 0.0076059327 -0.016079463 0.005908089 -0.012332636 -0.0024097408
-0.0061056702 -0.0016801675 -0.013644243 -0.00060414016 -0.00961102 0.0035026032 -0.0044267336 -0.004051326
0.015255591 -0.038154323 -0.017808164 0.0011019132 -0.0067647565 -0.010864337 -0.012531989 -0.030408613
0.019964125 0.006384053 0.009257984 -0.0099754855 0.004406666 -0.015575667 -0.0059018186 -0.0023756188
-0.016281903 0.010653863 -0.029096242 -0.0029385872 0.0054764184 0.015872138 -0.019693492 0.01071902
0.012066788 -0.021909589 0.012974627 0.01316584 0.00865654 0.018045925 0.03987342 0.016758135
0.011318541 0.0104713775 0.016158523 0.030099487 0.00094786275 -0.01753431 -0.026449041 -0.035893995
0.0027236308 -0.001848003 0.017276295 0.016297556 0.026770892 -0.056936108 -0.010830974 0.010388102
0.007983444 -0.0038526657 -0.020718526 0.010549778 -0.040240128 -0.027908083 -0.017704893 -0.0066953357
-0.0066468306 -0.02400856 0.014128264 0.01445891 -0.0071006417 0.0011970584 0.042015802 0.01752992
0.01822782 -0.005893733 -0.01652508 0.0163825 0.009942746 -0.004902809 0.009089771 0.023394616
-0.009473656 -0.0021764014 0.009543036 -0.035458207 -0.00074958673 0.044816356 -0.00012305584 0.016053295
-0.0024140968 -0.012456739 -0.01878046 -0.005960048 0.052475143 0.0053499863 0.001589631 0.026537169
-0.047554214 0.002588672 -0.0100108525 0.0118889455 -0.0021265866 -0.0015371849 0.0060079936 0.011303062
-0.019588606 0.010178313 -0.007813933 -0.0031650981 -0.034312513 0.001934383 0.011004496 -0.0212837

motion_transformer.transformer.2.fc0.fc.bias f4 [50]
00000000: 0e14 be34 ae78 4435 e605 d534 8d2e 5735
00000010: c178 84b5 c0ba 87b5 6cc8 2db4 de18 7634
00000020: d8c4 d534 7de1 4fb5 4844 2835 00b8 40b2
00000030: 543e bf35 3a76 79b5 219e 68b5 f32d 9bb5
00000040: 8291 ef35 801b 5bb5 dc5f 8b34 ea00 2235
00000050: 01bf 7435 a7d1 b6b4 0e32 0c36 f658 0234
00000060: f697 1534 4aa4 22b5 3264 5cb5 32c5 55b4
00000070: c040 b235 3057 b3b4 d9ce beb5 d5bb 09b5
00000080: 4890 0536 93d5 ed35 81bc 9cb4 9601 3eb5
00000090: e738 fc33 3fd8 b3b5 8f45 7d34 3892 afb4
000000a0: ac44 a7b5 ab49 5c34 680a 28b5 a373 74b5
000000b0: 2673 4735 47dc 3f36 4b0f b7b4 4197 0bb5
000000c0: f2c8 5d35 4942 96b4
3.540485e-07 7.31913e-07 3.9678633e-07 8.016148e-07 -9.86991e-07 -1.0112635e-06 -1.6184794e-07 2.2919582e-07
3.9817564e-07 -7.744164e-07 6.268424e-07 -1.1217708e-08 1.4248749e-06 -9.293177e-07 -8.665684e-07 -1.1561773e-06
1.7849236e-06 -8.1623875e-07 2.5960514e-07 6.0351033e-07 9.117503e-07 -3.4052684e-07 2.0890761e-06 1.2139557e-07
1.393199e-07 -6.0588775e-07 -8.210219e-07 -1.990891e-07 1.3280878e-06 -3.3404785e-07 -1.4216304e-06 -5.130981e-07
1.9902527e-06 1.7720034e-06 -2.919442e-07 -7.0782824e-07 1.1745015e-07 -1.3399475e-06 2.3587766e-07 -3.2702678e-07
-1.2462456e-06 2.0515897e-07 -6.260002e-07 -9.1065357e-07 7.430084e-07 2.8589436e-06 -3.4097533e-07 -5.200164e-07
8.262133e-07 -2.7987906e-07

motion_transformer.transformer.2.norm0.alpha f4 [1, 66, 1]
00000000: d772 8b3d 3ea2 183d 2569 6c3d 1a98 6a3d
00000010: 1eca 833d 56f8 953d d374 c03d 512a 983d
00000020: 2faf 4c3c 048a 633d 9cd3 723d 7864 663d
00000030: fb35 833d bdad 5f3d 394e cc3d 1c7a b23d
00000040: bf42 b03d 7858 973d e403 c23c a26c 123e
00000050: c906 703d b712 953d 17c7 863d 5520 c13d
00000060: b235 963d c8d2 9a3d 58d9 443d d402 ac3d
00000070: 9624 773d c2c3 913d f3fd 763d 1a3a bc3d
00000080: bf42 8d3d 1785 3a3d 886a 993d 3c3c b83d
00000090: 7f5b 443d 4b80 643d 9f96 a03d 2089 ae3d
000000a0: 2dfa 913d 05de 0d3d fd1b 813d 1e01 703d
000000b0: 546c a33d 73c1 a93d 4f90 603d dd09 953d
000000c0: 799e 7f3d d04c b63d 2bac 9a3d e63a bf3d
000000d0: ceb8 b73d 8543 953d bc78 6c3c 1a3a 7a3d
000000e0: b3fc 803d cf97 743d b60a 7e3d e93a bc3d
000000f0: bb47 7a3d f397 a13d 9b2a 7a3d 1d1d 9c3d
00000100: 77c7 923d cd03 af3d
0.06809013 0.0372641 0.05771746 0.05727396 0.06435035 0.07322757 0.093972825 0.07429946
0.012492939 0.055551544 0.059283838 0.05624816 0.0640678 0.05460905 0.09975857 0.08714697
0.08606481 0.07389921 0.023683496 0.14299253 0.05860022 0.0727896 0.06580942 0.09429995
0.0733446 0.075597346 0.048058838 0.08398977 0.060337625 0.07117416 0.06030078 0.091907695
0.068974964 0.04553708 0.07491022 0.08995864 0.04793882 0.055786412 0.07841229 0.08522248
0.07127795 0.034635562 0.063041665 0.058594815 0.07979646 0.08288851 0.054825123 0.07277272
0.06240699 0.089013696 0.0755237 0.09337406 0.089707956 0.07288269 0.014433082 0.061090566
0.062981986 0.05971509 0.062021933 0.09190924 0.061103564 0.0789031 0.061075788 0.076227404
0.07166951 0.08545647

motion_transformer.transformer.2.norm0.beta f4 [1, 66, 1]
00000000: 27a2 dd3b 1359 173b e778 1f3b 4903 8abb
00000010: 5ab4 b93b 4438 1abb a981 69bb 059d ccba
00000020: 2db6 c8ba 8f2b 9b3b 94bf 6a3b a57f 4f3b
00000030: e449 9f3a 64b4 edba f87e 5abb 9e71 b6ba
00000040: 09a5 80b8 a89f 803b 27ac 5d3b 7400 e9bb
00000050: 7053 1ebb 1b87 3abb b266 783a 9f6a c5bc
00000060: 3213 7db9 5911 c3ba 1303 2ebb e1ef 753b
00000070: 8193 2a3c ac23 e13b be37 023b c2d3 16bc
00000080: fdf5 913a 8624 aebb 29bd d13b f901 013c
00000090: cfac acbb f538 14bc 19a7 78bb 902c 813a
000000a0: 9799 353c 42ea 8c3a bc61 70bb 20e8 3abb
000000b0: 7f29 be3b 9806 353c f293 343c bb59 11bc
000000c0: 7df4 023c 080d 96bc 170b 0ebc 566e 623c
000000d0: 71a8 85bc f79f 46bb d14d 093b 60a3 29bb
000000e0: dbf2 08bc bf6b e73a f9cd e93a 179d 95bb
000000f0: 614b 6f3c b45d 2b3a 5ae2 e03a 1190 aabb
00000100: a938 213b 7d5a 0a3c
0.006763715 0.0023093864 0.0024333538 -0.0042118174 0.0056672515 -0.0023532072 -0.0035630262 -0.001561076
-0.0015313082 0.004735417 0.0035819756 0.0031661775 0.0012152758 -0.0018135426 -0.003333984 -0.0013919359
-6.134256e-05 0.0039252825 0.0033824535 -0.0071106497 -0.002415862 -0.0028461877 0.0009475752 -0.024098692
-0.00024135111 -0.0014882489 -0.0026552125 0.0037527012 0.010411144 0.0068707075 0.001986965 -0.00920576
0.0011135932 -0.0053144125 0.0064007235 0.0078740055 -0.005269624 -0.009046783 -0.0037941395 0.00098552
0.011083982 0.0010750967 -0.0036679348 -0.0028519705 0.0058032866 0.011048935 0.011021601 -0.008871491
0.007992861 -0.01831676 -0.008669636 0.013820251 -0.01631567 -0.0030307749 0.0020950923 -0.0025884733
-0.0083586825 0.0017656012 0.0017837874 -0.0045658457 0.014605374 0.0006537095 0.0017157302 -0.0052051623
0.0024600422 0.008444426

motion_transformer.transformer.3.fc0.fc.weight f4 [50, 50]
00000000: b6b6 53bb bc18 7d3c 6d41 823c 8db2 b63a
00000010: 3d53 743a 8d61 3dbc c5e4 273c bd6c 92bc
00000020: 9962 38bc d7d7 17bc c266 533c fb33 55bc
00000030: 7287 1fbd b6be ca3b f91f fe3b 02f5 173c
00000040: 995b 823c 8012 1c3c ae04 bd3b 196a 8f3c
00000050: a938 6cbb 1a22 23bd 53aa 013d a001 2a3d
00000060: 1604 683c 67e6 c33c 6ab5 833c ce8a 273d
00000070: 8aed 7038 17e1 ba3c 6e7d c03c c295 8bbb
00000080: 063f 303d d06a b2bb f1fd 4c3c ea94 8dbc
00000090: bc73 8e3c 9531 c73c 46b0 3abc 0ab6 083c
000000a0: af59 bfbc 2057 e23b 8dbb ca3c 8d09 9bbb
000000b0: 9e28 09ba 41b1 3fbc 1d0c b7bb 9b9e 8fbb
000000c0: 7ff4 85bc 0c63 193b 63b7 af3c eb52 12bb
000000d0: 87b5 c9ba a291 94bc cb33 69bc 6458 64bc
000000e0: 17b9 b23b ff32 74bb f82c 10bd c8b3 e4bc
000000f0: 54e5 a0bb f9bd 8ab9 7955 e1bb 1500 efbc
00000100: 573d 713b 6225 46bb 4fc7 0bbd 27d9 5139
00000110: ae99 a9ba d799 e9ba add5 4bbc dadd f3bb
00000120: 8a82 77bc 145f 27bd 6ece ae3c 6db0 943c
00000130: e43d 43bc 5048 bcbb cdf7 f23b 0d01 1dbb
00000140: a355 5a3b f456 e6bc 5e5a 6d3c ac46 9f3a
00000150: 865c 873c 48f8 a0bc 8365 0d3c 7b15 123c
00000160: 59d4 c4bb bb48 da39 1c8e 57bc cca9 88bc
00000170: 84d1 703c e783 e9bb 1ce6 873c 86b5 833c
00000180: 0932 1a3c 2783 b13b 712f 09bc 86f4 b83b
00000190: 43ea 583c 2722 a7bb a087 af3c ca11 17bd
000001a0: d4c4 6b3c ead3 b1ba f361 c8bc ed80 9cbc
000001b0: 40af fdbc 059e 25bc 1312 7b3c 31d4 6d3c
000001c0: 892c b0bb c10d 31bc 7c60 69bc 8eb0 f93c
000001d0: 849b 2e3c 0b63 1dbc 9850 c53c b337 b53c
000001e0: 788b ed3b 2c26 16bc cc2d 87bb 8672 8d3c
000001f0: 8ada d9bb a455 e53c f24a 0ebb 8b4c d93c
00000200: bb67 1a3c 5c27 b73c bd6c 183c 1a94 82bc
00000210: 120c 8a3a 7aab d5ba 091c 373c 35c2 e43b
00000220: 8604 8dbc cf21 d73c 3b9e 6dbc 96e1 26bb
00000230: 2e70 c0bc da92 cabc 3d97 07ba cfa1 c8bb
00000240: 885f 8b3a 907e 193c a834 553b 670a 3c3c
00000250: 01e3 a9bc dc2c 643c 404e 42bc 4557 e93c
00000260: 0cb5 873a 4090 62bd a55b ca3b 9442 2e3d
00000270: b7a6 043c 9832 97bc 12b5 0bbc e38f 1d3d
00000280: bcca 483c eaa1 923c 9ebb e73c 4d4c 39bc
00000290: cb01 99bc e853 0abc a8d5 24bb da35 d6bc
000002a0: 5405 a03b 2f93 5c3c bed6 803a ee07 233c
000002b0: 0fe9 25bc 2e3b 933c e0d8 3ebc 8674 db3b
000002c0: 847f bf3c 2b79 4dbc 65b9 89bb c440 dabc
000002d0: 4969 9b3b 1b10 6fbb 5cdf 1cbc d3a9 71ba
000002e0: 585a 8539 811e f8bc f8c2 21bd 3bb6 38bc
000002f0: 7054 2abc d32e 84bc 9c84 c43c 6944 b5bc
00000300: 1b87 02bc 2fc9 323a 4391 553c 88b5 ccbc
00000310: b523 0fbd f416 eabb 7a08 03bd 0eca 743c
00000320: 0f09 803c ca60 18bc 125d 8ebc 2f29 99b9
00000330: c3b3 79bd 8dde 4f3c 8325 2dbc 4088 a03b
00000340: 06cd 833c 34bc a6bc 6537 9f39 b761 913c
00000350: dba0 2c3d bf71 29bc edad d6bc bb8d 13bc
00000360: f3ef aabc f9d7 863c cbef 6f39 3089 b8bc
00000370: 40ce c7bb a8e1 20bc 4762 393c 8b86 a9ba
00000380: e0fa a13c 0f07 2b3d ae45 efbb 8540 203d
00000390: ba58 09bb 4003 b4bc 3419 eb3c f660 5c3c
000003a0: 3f62 04bc affb 443a 5de4 12bd 52ea a2b9
000003b0: 51a0 bbbc 102c 5b3c 2bf4 bebc 9062 383c
000003c0: 16de 353d e196 66ba fccc 483d 0662 a63a
000003d0: 09f4 94bc 9280 2d3d 201c 163c 9c0e dc3b
000003e0: c3b0 683c dfef 90bc 2428 d73b 3d47 75bc
000003f0: 8a71 e8bc 3e7e 83bc c77f 82bc d5a9 20bd
-0.003230495 0.015447792 0.015900338 0.001393871 0.0009320265 -0.011558902 0.010247414 -0.017874116
-0.011253976 -0.009267769 0.012902917 -0.013012881 -0.03894753 0.0061872853 0.0077552763 0.009274723
0.015912818 0.009525895 0.00576838 0.017506646 -0.0036044514 -0.039827444 0.031656574 0.041505456
0.01416113 0.023913575 0.016077716 0.04090386 5.7441684e-05 0.02281241 0.02349731 -0.004259796
0.043028854 -0.005444862 0.012511716 -0.017282922 0.01738917 0.024315635 -0.011394566 0.008344183
-0.023358194 0.0069073588 0.024747634 -0.004731363 -0.00052321877 -0.0116999755 -0.005586161 -0.004382921
-0.016351936 0.0023404984 0.02144975 -0.0022327255 -0.0015389182 -0.01813585 -0.01423354 -0.01393709
0.0054541933 -0.0037261841 -0.035199136 -0.027917758 -0.0049101505 -0.00026462952 -0.006876644 -0.029174844
0.0036810243 -0.0030234684 -0.034125622 0.00020012689 -0.0012939477 -0.0017822337 -0.012441081 -0.0074422183
-0.0151068065 -0.040862158 0.021338668 0.018150533 -0.011916611 -0.005745925 0.007414794 -0.0023956925
0.0033315204 -0.028117634 0.014486877 0.0012151799 0.01652361 -0.01964964 0.008630159 0.008916254
-0.006006759 0.0004163439 -0.01315644 -0.016682528 0.01469839 -0.0071263197 0.016589217 0.016077768
0.009411343 0.005417246 -0.008373127 0.005644384 0.013239446 -0.005100507 0.021426976 -0.0368822
0.014390189 -0.0013567184 -0.024460768 -0.019104445 -0.030967355 -0.010108476 0.015324133 0.014515922
-0.0053764028 -0.010806502 -0.014244195 0.030479696 0.010657195 -0.009606133 0.024086282 0.022121286
0.007249292 -0.009164374 -0.0041253325 0.017266523 -0.0066483663 0.027994938 -0.0021712151 0.026525756
0.009424145 0.022357635 0.009303269 -0.015939761 0.0010532162 -0.0016301714 0.011176118 0.006981159
-0.017214071 0.026261238 -0.014503057 -0.002546405 -0.023490991 -0.024728227 -0.00051723776 -0.0061228047
0.0010633329 0.009368554 0.0032532606 0.0114770895 -0.020738127 0.013926711 -0.011859477 0.028483996
0.0010353639 -0.05531335 0.0061754757 0.042543963 0.008096389 -0.018456742 -0.008527057 0.0384673
0.012255367 0.017899472 0.028287705 -0.011309695 -0.018677613 -0.008442856 -0.0025151763 -0.026148725
0.0048834477 0.013462826 0.0009829623 0.009950621 -0.010126366 0.017972555 -0.011648387 0.0066972403
0.023376234 -0.012541096 -0.004203009 -0.02664221 0.0047427756 -0.0036478105 -0.009574737 -0.0009218726
0.00025435048 -0.030287983 -0.039492577 -0.011273916 -0.010396108 -0.016135609 0.023989014 -0.022127347
-0.007966782 0.000682014 0.013035121 -0.024988905 -0.034946162 -0.0071438495 -0.031990506 0.014940752
0.01562932 -0.00930042 -0.017378364 -0.00029213118 -0.06096245 0.012687338 -0.0105680255 0.0048990548
0.016088974 -0.020353414 0.00030368115 0.01774679 0.04214559 -0.010342061 -0.026205981 -0.009005959
-0.02086637 0.016460406 0.00022882146 -0.022526354 -0.006097585 -0.009819426 0.011314935 -0.0012933774
0.019772947 0.04175478 -0.0073020076 0.03912403 -0.0020957426 -0.021974206 0.028698541 0.013450852
-0.008080064 0.00075143104 -0.035862315 -0.0003107363 -0.022903593 0.013377205 -0.023309788 0.011253968
0.04440125 -0.00087962864 0.049023613 0.0012694008 -0.018182771 0.042358942 0.009161979 0.0067156088
0.0142022995 -0.017692504 0.0065660644 -0.014970598 -0.028374452 -0.016051408 -0.01593007 -0.039224464

motion_transformer.transformer.3.fc0.fc.bias f4 [50]
00000000: e425 e3b4 73b1 a2b4 daf6 0c35 7ae7 16b6
00000010: d2d6 6c35 4edd 7835 a47a 38b5 a752 9b35
00000020: 93f4 a8b5 bf44 1bb4 3e22 6eb2 7812 53b5
00000030: 49c6 d735 2808 90b4 9220 2436 63c6 35b4
00000040: da6e d0b4 4e9c 9a34 a38b a134 efe2 1535
00000050: 04fc 4834 6d9c 3db5 8dc5 fc35 8c87 9bb4
00000060: 5af2 bc34 71ac c334 93e4 a132 69ab 1334
00000070: 1d8c b1b5 6b06 a935 6613 2bb3 d4c8 b8b4
00000080: f2dc 7d34 ac31 65b4 a828 e3b4 dbe1 4835
00000090: a093 2934 c567 97b5 41ca 66b4 2ed4 38b4
000000a0: 04f7 e2b3 2037 c3b5 cdea 21b5 54c1 f6b4
000000b0: ad22 0cb4 6dd6 4a34 d550 6a34 0b7f 63b4
000000c0: 4703 e834 9763 b734
-4.2309614e-07 -3.0303963e-07 5.251328e-07 -2.248648e-06 8.8229456e-07 9.270924e-07 -6.8723807e-07 1.1572455e-06
-1.2588156e-06 -1.446051e-07 -1.3861209e-08 -7.86305e-07 1.6076457e-06 -2.6828025e-07 2.4456863e-06 -1.6929111e-07
-3.8823674e-07 2.8798462e-07 3.0090186e-07 5.583706e-07 1.8718134e-07 -7.0635616e-07 1.8832958e-06 -2.8969623e-07
3.5194063e-07 3.6447048e-07 1.884681e-08 1.37528e-07 -1.3228306e-06 1.2593349e-06 -3.9831683e-08 -3.4418792e-07
2.364284e-07 -2.1345357e-07 -4.2311626e-07 7.483447e-07 1.5793057e-07 -1.1280578e-06 -2.1493999e-07 -1.7213526e-07
-1.0568877e-07 -1.4544676e-06 -6.0318854e-07 -4.5961735e-07 -1.3051131e-07 1.8890724e-07 2.1822355e-07 -2.118724e-07
4.3215752e-07 3.4158867e-07

motion_transformer.transformer.3.norm0.alpha f4 [1, 66, 1]
00000000: db26 af3d eb61 203d e918 673d de4c 4f3d
00000010: fa46 363d 8d48 893d a8df b33d 4478 9d3d
00000020: 7781 fa3b 1fab 593d 22be 843d ce3d 323d
00000030: fff4 7b3d 4ee9 2c3d 3b99 123d e978 163d
00000040: 021e a83d ba64 9d3d f3ba cd3c d71d 2f3d
00000050: e1bb 5a3d 41e9 a23d fcff 193d 26dd 353d
00000060: caf5 843d 2974 523d 2efb 4c3d 89a6 a73d
00000070: 84b5 483d 6c69 4e3d cddf 7a3d 80b0 a83d
00000080: b81b 9e3d 1cf0 373d d7c0 8a3d 8084 7d3d
00000090: a93f 743d 17e7 473d a19a a63d e6af ae3d
000000a0: 4103 7d3d ac80 533d 450f 623d 6a62 593d
000000b0: bcfb 8e3d 3b20 d23d c493 8d3d 73de ab3d
000000c0: 42cb 193d b628 a83d 8f3c 883d 56ae ab3d
000000d0: 6c14 cd3d 653a 8f3d 62d6 793c 86a1 593d
000000e0: 04d3 7e3d 1609 6d3d 3407 213d bba4 b23d
000000f0: 910d 783d 0ec5 ad3d b987 5b3d adf3 913d
00000100: 656a 8c3d 4d9f aa3d
0.08552333 0.03915588 0.05642024 0.050610416 0.044501282 0.06703291 0.087828934 0.076889545
0.007644828 0.05314171 0.064815775 0.043515973 0.061512943 0.042214684 0.035790663 0.036736403
0.082088485 0.07685228 0.025113558 0.042753067 0.05340183 0.07954646 0.03759764 0.044400357
0.06492193 0.05138031 0.05004423 0.08186061 0.04900123 0.050393507 0.06124859 0.0823679
0.07720131 0.04490672 0.067750625 0.06189394 0.059631024 0.04880437 0.08134962 0.08529644
0.06177068 0.051636383 0.055190343 0.05307237 0.06981608 0.10260054 0.0691295 0.08392038
0.037547357 0.0821089 0.06652176 0.08382861 0.10013661 0.0699356 0.015248867 0.053132556
0.06221296 0.057869993 0.03931351 0.08722826 0.060559813 0.08484851 0.053596232 0.071265556
0.06856231 0.083311655

motion_transformer.transformer.3.norm0.beta f4 [1, 66, 1]
00000000: f92d 643b d9e5 a1bb 9ea8 0dbc cee5 cb3a
00000010: 110a 6ebb f1b1 61bb 2fda c83c ace1 b53b
00000020: 8523 c8b9 068b 1c3b 6680 7fbc efcc 4ebb
00000030: 8aa4 47bb 5b3d da3b 59e9 f93b dcd6 29bb
00000040: e78a 27bc 72fc 393c 0286 32bc 6cad 803c
00000050: ddbb 4f3b b4e3 03bb 3d63 c73b 9b60 91bc
00000060: 8799 313b 2c1e 0a3c 56bf d5ba 6bd7 713b
00000070: bec3 2ebb 6c4e b4bb 6f33 9339 d31a b838
00000080: 9ce4 b0ba d672 8238 9071 803b 1c89 2abb
00000090: 7c43 3bbb f4e3 8cb9 45bd f6ba 01d2 79bc
000000a0: b024 b4bc 6d73 8abb ebc9 893c a6ff f43b
000000b0: 8f0d 26bc 3829 ec3c 02ea 383c b440 1cbb
000000c0: bb64 bfbb 226a 423b e219 353b dcd3 7cbc
000000d0: 55f5 ed3c d9a7 a43b bde4 8b3b 8ac0 613b
000000e0: 59c8 c83b ee09 193c 336d ccbb 9bfe a5ba
000000f0: fcb0 33bc 8cea c73b ba9d a3bb 7fc7 cc3b
00000100: ac42 16bc 0320 90b9
0.003481744 -0.00494073 -0.0086461585 0.0015556158 -0.0036321918 -0.0034438337 0.0245181 0.005550584
-0.00038173437 0.0023886575 -0.015594577 -0.0031555255 -0.0030463063 0.006660146 0.007626694 -0.002591542
-0.010225988 0.011351692 -0.010896208 0.015707694 0.0031697669 -0.0020124735 0.006084828 -0.01774626
0.0027099566 0.008430045 -0.0016307633 0.003690208 -0.0026666964 -0.0055025127 0.00028076346 8.7788e-05
-0.0013495865 6.220273e-05 0.0039197877 -0.0026021665 -0.002857416 -0.0002687272 -0.0018824717 -0.015247823
-0.02199015 -0.0042251856 0.016819915 0.0074767647 -0.010135069 0.028828248 0.011286261 -0.0023842277
-0.0058408654 0.002966531 0.0027633836 -0.015431371 0.029047647 0.005024892 0.004269211 0.0034447038
0.006127399 0.009340746 -0.0062386035 -0.0012664379 -0.010967489 0.006100958 -0.0049931677 0.0062493677
-0.009171169 -0.0002748967
