checkpoints/h36m_model_35000.pth (torch, 625202 bytes, 196 tensors)

motion_transformer.transformer.0.fc0.fc.weight f4 [50, 50]
00000000: 2eac c4bb 5d26 0dbd cae8 ec3c 8708 c7bc
00000010: d1df 4f3c e4f6 c8bc d098 7c3c b98d 12bd
00000020: c6df 243d 9dc9 04bd 1bdb 2c3c e6bb 64bc
00000030: ee8d 34bc 998f 4dbc f3dc f8bb 9a52 61bc
00000040: 3698 2ebc 78bc 70bc e97b 75bc e954 7dbc
00000050: a247 71bc 728b 61bc 31d8 1fbc 9383 84bc
00000060: 545d c0bb 042f 7bbc 9927 afbb 45b4 8bbc
00000070: bc0e e1bb 70d0 86bc e25c c5bb 8b3e 6dbc
00000080: 1506 09bc 31ea 53bc 0bd5 2cbc 4e19 38bc
00000090: 4c47 26bc 19ea 16bc 6fa9 2cbc d868 1dbc
000000a0: 5398 16bc f4d6 14bc 5dbb 27bc 50b5 c4bb
000000b0: e1a2 43bc ceaf e5bb 1a73 20bc 0936 d3bb
000000c0: f780 eabb 5fb0 1cbc 4421 5b3c 6458 9abd
000000d0: 2620 d83c a15c 5fbc ef24 d93c aa17 d3bc
000000e0: 770a 103d 3662 39bc 6531 8cb9 eb7a 19bc
000000f0: a97a c03a 502d 323c 6ad7 72bc 1ccd 4d3c
00000100: a6da 15bc 66ab 24bc 11b1 113b 5590 9cbb
00000110: 44cc 2ebb c2c2 d9bb bc86 03bc e16c 85bb
00000120: cc88 1fbc e352 9abb 783f 43bc 1b68 01bb
00000130: a9b1 46bc e38b 31bb 12b6 09bc 2b23 f4bb
00000140: 1d49 46bc 104d 08bc 877d 38bc 0e9b 18bc
00000150: bf77 04bc 19f9 10bc 8884 1bbc 2c7f 44bc
00000160: 96ae fabb 4926 36bc 852a 0bbc 8823 0cbc
00000170: cac1 ebbb 026a 35bc aa71 0abc 1d13 31bc
00000180: c512 e6bb 6bb0 35bc 6b5a 3cbc 4e3a 16bc
00000190: 5b1f d83b b941 eabc 66c8 123c 2a05 a7bc
000001a0: 2e17 89bb 5f96 9dbb 7908 993c 91b5 1b3b
000001b0: 33e2 0e3c c4c7 463b d075 72bc 1da9 42ba
000001c0: bc9e 00bc de2f 31bc bcca 3a3b c786 21bc
000001d0: de4d 17bb a6a1 42bb 18b9 35bc e587 11bc
000001e0: 726a 54bc e50e 82bb 99a4 83bc 664a 00bc
000001f0: 4de0 69bc 481c 62bc c9f0 4ebc 4c00 80bc
00000200: 104d 35bc f66e 86bc 6cea 25bc 76dd 64bc
00000210: 2e48 5ebc cac0 8ebc 4e5d 66bc e7ee 8ebc
00000220: 8cc9 35bc 2569 94bc 3ab7 3fbc 3703 82bc
00000230: 5b56 3fbc 703f 89bc 259c 44bc 8416 88bc
00000240: c1b5 32bc 0929 71bc ac39 74bc 75a0 87bc
00000250: aecf 69bc b988 87bc fa04 37bb ac30 303b
00000260: 8567 c0bc 00d6 1dbc de0d 8abc db08 76bc
00000270: 48b4 e4bc 91cf 753c f2ab 8abb 9461 64ba
00000280: 2a6d f6bc 0e9d 283c f04c 04bd a4bf 30bb
00000290: 683f b6bc e68f 59bb d34a 1cbc 571b a8bb
000002a0: f7f8 85bc 0421 13bc 7d66 45bc ac61 34bc
000002b0: 4aff 20bc 0b75 96bb c254 51bc befd 75bb
000002c0: 3d38 69bc 30c2 efbb 4272 00bc ad3d 06bc
000002d0: b969 42bc 8887 1fbc df9d 0ebc 7ab5 0fbc
000002e0: 09b9 14bc 6901 f5bb 54d8 44bc 8484 cfbb
000002f0: e987 2cbc 60a5 00bc 2b98 49bc 527d e7bb
00000300: c62b 39bc 139c 09bc d4fe 46bc a289 11bc
00000310: 65df 2bbc 74cc 0fbc 03c6 29bc 5868 19bc
00000320: 0a6f 8abb 74c4 5f3a 530f 82bc 4ec7 9fba
00000330: 9b8d 2dbb 6326 013c 79b5 d7bc ef61 933c
00000340: 2bb7 f93c 09fc 6c3a b1a6 31bc d234 ba3c
00000350: c7af a1bb 17c0 ab3c 6ab0 f1ba caa0 933c
00000360: 23d7 36ba beab 8e3c f128 f83b cb49 793c
00000370: 5587 463b 44d6 3d3c 9c64 293c 1261 953c
00000380: c78e cc3b c9a5 6b3c 4334 0f3c 4887 003c
00000390: fb47 1f3c 8b3a 523c 2ea6 0b3c ede6 2f3c
000003a0: 72ec 2a3c d95d 153c 9513 0a3c af93 213c
000003b0: bd0c 803c 9370 e03b 1336 563c cbf9 e53b
000003c0: fff9 583c 59da 083c 5eef 2b3c b89b cf3b
000003d0: a5e0 3c3c 9878 d63b 0085 393c 821f 1f3c
000003e0: 9ec9 233c dd98 013c af3d 34bb a00d fc3b
000003f0: b33f 9cbc e64e 1c3c 5691 f7bb 0a15 4bb9
-0.0060019707 -0.034460414 0.028919596 -0.024296058 0.012687639 -0.02453179 0.015417293 -0.03577969
0.04025247 -0.032418836 0.010550286 -0.013960814 -0.011020167 -0.012546443 -0.0075946986 -0.013752604
-0.010656407 -0.014693372 -0.014983156 -0.015462139 -0.014726551 -0.0137661565 -0.009756134 -0.01617602
-0.0058705006 -0.015331034 -0.0053452966 -0.017053733 -0.0068682116 -0.016456813 -0.0060230354 -0.014480243
-0.0083632665 -0.012934254 -0.01054884 -0.011236502 -0.010148834 -0.009211087 -0.010538443 -0.009607516
-0.00919159 -0.009084452 -0.010237542 -0.0060030594 -0.011940689 -0.007009483 -0.009793067 -0.0064456505
-0.007156487 -0.0095635345 0.01337463 -0.075363904 0.026382517 -0.013632924 0.02650687 -0.02576812
0.03516623 -0.011314919 -0.00026739683 -0.009367685 0.0014684993 0.010875061 -0.0148218665 0.012561109
-0.009146368 -0.01005063 0.0022230784 -0.004777948 -0.0026672045 -0.0066455314 -0.008027729 -0.0040718173
-0.009737205 -0.004709588 -0.011916988 -0.001974589 -0.012127318 -0.0027091436 -0.008405225 -0.0074504814
-0.0121023925 -0.008319154 -0.011260397 -0.009314312 -0.00808519 -0.008848452 -0.009492047 -0.011993211
-0.007650207 -0.011117526 -0.008494024 -0.008553393 -0.0071947323 -0.0110726375 -0.008449951 -0.01080778
-0.0070212805 -0.011089425 -0.011496167 -0.009169174 0.0065955347 -0.028595792 0.0089589115 -0.020388205
-0.0041836714 -0.0048091854 0.018680798 0.0023759345 0.008720922 0.0030331472 -0.0147985965 -0.00074257125
-0.007850345 -0.010814635 0.0028502187 -0.009858794 -0.0023087184 -0.00296984 -0.011091493 -0.008882497
-0.012964832 -0.0039690607 -0.016069697 -0.007830238 -0.014274669 -0.013800688 -0.01263065 -0.015625142
-0.011065736 -0.016410332 -0.010126691 -0.013968816 -0.013567014 -0.017425913 -0.0140603315 -0.017447902
-0.011095416 -0.018116543 -0.011701399 -0.015870674 -0.011678304 -0.016753882 -0.012000118 -0.016612299
-0.010907591 -0.014719256 -0.014906328 -0.016556004 -0.014270706 -0.016544687 -0.002792655 0.002688448
-0.023486862 -0.009633541 -0.016852316 -0.01501676 -0.027917996 0.015003101 -0.0042319233 -0.000871205
-0.03008135 0.010291351 -0.032299936 -0.0026969695 -0.022247031 -0.0033197342 -0.009539324 -0.0051302123
-0.016354067 -0.0089800395 -0.012048361 -0.011009615 -0.009826491 -0.0045915893 -0.0127765555 -0.0037535275
-0.0142346 -0.00731685 -0.007839741 -0.008193416 -0.011866027 -0.009736903 -0.008704632 -0.008771295
-0.009077319 -0.0074769747 -0.012014467 -0.0063329358 -0.01053045 -0.0078519285 -0.012304346 -0.0070645
-0.01130194 -0.008399027 -0.012145717 -0.008882912 -0.010490273 -0.008776773 -0.010362151 -0.009363256
-0.0042246627 0.00085360487 -0.015876448 -0.0012190135 -0.0026482109 0.007882687 -0.02633165 0.017991034
0.03048285 0.0009040242 -0.010842965 0.022730265 -0.0049342844 0.020965619 -0.0018439416 0.018021006
-0.0006974807 0.017415877 0.00757324 0.0152153475 0.0030293067 0.011586729 0.010338929 0.018234763
0.0062426063 0.014382788 0.0087404875 0.007844754 0.009721751 0.012831341 0.008523507 0.010736209
0.0104323495 0.009116613 0.00842752 0.009861871 0.015631074 0.0068493574 0.013074416 0.007018303
0.013243197 0.008352839 0.010494081 0.006335702 0.011528169 0.0065451376 0.011323214 0.009712102
0.0099968 0.007909981 -0.0027502587 0.007692054 -0.019073343 0.009540295 -0.007555167 -0.00019367426

motion_transformer.transformer.0.fc0.fc.bias f4 [50]
00000000: 6c82 b4b5 075b a234 3186 2336 7171 b3b6
00000010: 005d 39b6 706e 8936 04a5 6d35 7d2c 2a36
00000020: 6da6 e6b5 9d60 90b5 2205 9cb6 2e1f 74b4
00000030: 8b1a 4bb6 4cad cb35 19ce 9536 849a 3ab6
00000040: 0a1b 7638 7b1f 2d36 78f1 fcb5 0951 bd34
00000050: 318b 9036 15c2 e435 ea81 f236 96b7 8fb6
00000060: ce60 df36 7e36 7db6 5812 ecb6 8d8b 7337
00000070: 91fb a6b6 c0bd ae35 0534 2ab6 d376 d435
00000080: 6b88 0036 08ce 38b5 cb05 95b6 1759 aab7
00000090: 0c84 9bb4 05dc 81b8 67e4 69b6 2eb6 0d37
000000a0: cefe d833 7203 eeb5 f2be d635 477f 83b5
000000b0: 7f73 5036 fc00 2635 42cd b536 3318 b2b6
000000c0: af9f 2735 8387 7cb6
-1.3449003e-06 3.0241083e-07 2.4367002e-06 -5.347822e-06 -2.7621281e-06 4.095775e-06 8.852951e-07 2.535787e-06
-1.7184772e-06 -1.0756954e-06 -4.64976e-06 -2.2735614e-07 -3.0264807e-06 1.5175115e-06 4.464539e-06 -2.78061e-06
5.8676153e-05 2.5797333e-06 -1.884574e-06 3.5262954e-07 4.3077384e-06 1.7043809e-06 7.227286e-06 -4.2831043e-06
6.6571874e-06 -3.7731656e-06 -7.0354836e-06 1.451642e-05 -4.9764717e-06 1.3019235e-06 -2.5362253e-06 1.5829813e-06
1.9152892e-06 -6.8845156e-07 -4.4412204e-06 -2.0307065e-05 -2.8967077e-07 -6.192181e-05 -3.4852653e-06 8.446672e-06
1.01046325e-07 -1.7733385e-06 1.5999815e-06 -9.797303e-07 3.1061643e-06 6.184125e-07 5.4181155e-06 -5.3076305e-06
6.244472e-07 -3.7629804e-06

motion_transformer.transformer.0.norm0.alpha f4 [1, 66, 1]
00000000: 2659 133e 3e97 923d cb93 163e ddda 643e
00000010: 5534 fb3d c508 103e 3dca 233e e13e 1b3e
00000020: f7cd 66ba f08f 083e 8c1b 183e e291 053e
00000030: 5e42 303e a2fc 233e 8ad6 813e 8e91 bd3d
00000040: ad90 233e 6f22 183e c36f 5abd 2622 a73e
00000050: f7d9 093e 4e79 2e3e 6d51 d13d 4832 163e
00000060: ceb5 2a3e 6160 1f3e 018f 323e 8bad 303e
00000070: 518a 003e a3a8 003e b4f5 123e 5e77 1a3e
00000080: 5034 303e b72d a13d 95be 3b3e 4988 333e
00000090: b337 073e 9b28 093e dfb2 0b3e 820a 583e
000000a0: 3286 573e 1a40 b33d 78de 2a3e d437 063e
000000b0: abdf 143e b8cf 6f3e 3a76 9c3e c599 483e
000000c0: cd11 273e 1c2b 013e ace7 103e ca60 1f3e
000000d0: 2d62 f73d dee0 183e 3130 0c3b f06b 203e
000000e0: a5cf 323e 2445 173e 90c4 f43d fd3f 303e
000000f0: 4b8e 0c3e b7b6 143e 7588 133e 830a 093e
00000100: ffcb 4f3e e2dd 113e
0.14389476 0.071577534 0.14704816 0.22349115 0.12265841 0.14065845 0.15995117 0.15160705
-0.0008804495 0.13336158 0.14854258 0.13043931 0.17212817 0.1601434 0.25358993 0.09256278
0.15973158 0.14856885 -0.05332924 0.3264324 0.13462053 0.17038462 0.10220609 0.14667618
0.16670915 0.1556411 0.17437364 0.17253701 0.12552764 0.1256433 0.14351541 0.15084597
0.17207456 0.078700475 0.1833442 0.17532457 0.13204841 0.13394396 0.13642453 0.21097758
0.21047285 0.08752461 0.16686428 0.13107234 0.14538448 0.23419082 0.3055895 0.19589908
0.16315384 0.12614101 0.14150876 0.15564266 0.120792724 0.1492953 0.002139103 0.15666175
0.17462023 0.14772469 0.11951554 0.1721191 0.13726155 0.14522825 0.14407523 0.13382916
0.20292662 0.14244798

motion_transformer.transformer.0.norm0.beta f4 [1, 66, 1]
00000000: add2 423a 46b1 d0ba f515 463a 102d 20b4
00000010: dfae 4aba a4ac 0c3a 2576 af3a e488 733b
00000020: 12bf 65bd c716 d9b9 5f0e c539 29e7 3538
00000030: 8767 3239 4c2f 03ba 49f7 e7b9 2a19 8539
00000040: 2441 013b 1509 75bc b6b3 a5bb 5dac 213a
00000050: f1f1 e039 b27c e23b 7756 cf39 11f8 c13a
00000060: 7ae9 1439 957b 9e3a 0703 2c3b fd79 4bbb
00000070: 96cf f6ba b026 5c36 2da7 293a c0f8 c7b9
00000080: a308 843a 57c8 633b 803e 9139 f9a6 b33a
00000090: 3d16 10bb e2f3 c23a acbc 95bb 6258 64ba
000000a0: 0f2e 6c3b b503 853a df86 05ba cd81 1e38
000000b0: be06 b939 768c 8b3a 731a 97bb 729f 73bb
000000c0: 8367 31ba ba79 c9ba a0d6 cbb9 d75b 063b
000000d0: b2e8 b7ba b05f 2db9 360f 823d a1e6 96b9
000000e0: 7587 3e38 dfe3 733a 23b6 4d3b 2647 203a
000000f0: 3ee9 243b 1f80 b1ba 71d4 78b9 27a8 54ba
00000100: 7067 d939 2c46 7e3a
0.0007431906 -0.0015921972 0.00075563724 -1.4917555e-07 -0.00077317463 0.00053663016 0.001338665 0.003716045
-0.056090422 -0.00041406436 0.00037585475 4.3369047e-05 0.0001701397 -0.0005004301 -0.00044243995 0.00025386486
0.0019722665 -0.014955779 -0.0050568236 0.0006167347 0.0004290487 0.0069118375 0.00039546538 0.0014798661
0.00014201357 0.0012091274 0.0026246922 -0.0031048052 -0.0018830176 3.2805074e-06 0.00064717495 -0.0003814157
0.0010073375 0.0034756863 0.0002770312 0.0013706378 -0.0021985911 0.0014873708 -0.0045696106 -0.000871068
0.0036038195 0.00101482 -0.0005093645 3.7791022e-05 0.00035290973 0.0010646719 -0.0046113073 -0.0037173894
-0.00067674386 -0.001537136 -0.00038879085 0.0020501518 -0.0014031141 -0.00016534212 0.063505575 -0.0002878206
4.5425684e-05 0.000930367 0.003138908 0.00061141176 0.0025163437 -0.0013542211 -0.00023730264 -0.0008112215
0.00041466532 0.00096997875

motion_transformer.transformer.1.fc0.fc.weight f4 [50, 50]
00000000: 250d 3dbd 3a7a 20bd 8431 fd3b c3c0 9fbc
00000010: 69fc 343c fbb3 89bb 71a9 82bc d93c f1bc
00000020: 2549 82bd 487a 3bbb cbfe a8bb a0cb 27bc
00000030: b059 2cbc c9f7 123c 97b2 35bb 2219 063c
00000040: d0f7 c53c 0074 42bb c74b 39bc ae49 9c3a
00000050: 978c c8bb 8d6e 293c ff99 f03b bbcc 2f3c
00000060: 7d4d 0f3c eaff 043c f7fb db3c bc06 003a
00000070: 30ae 013d 1d7b 573c ba5f abbb 7443 63bb
00000080: f5a7 3abc 829a 383b 57da e7bb cf3a 573b
00000090: c26b 233a bc82 82bc 3c81 4a3b 838a 83bb
000000a0: d40a 95bb 4675 33bc afc7 93bc 9ad8 16bb
000000b0: 7d1d 1fbc 80da aab9 bd89 3ebc 9fbe b4bb
000000c0: 34f9 77bc a9cc 1a3c c9ec fbbc 853c 94bc
000000d0: 35fc 31b8 ceb5 abbb 2a06 6b3b 2439 50ba
000000e0: 8b1f 8d3c d4a7 7ebb 82cc 25bd 9a88 a33c
000000f0: 75cf 9ebc 37f5 dabb 992b a13b 6813 2e3b
00000100: 6f47 6f3c f302 1bbc a993 75bc e424 053c
00000110: d156 6539 8050 61bc ca6e 563c 9109 d2bb
00000120: afd4 683b 38f6 2bbc 9868 483c fd4f 2cbc
00000130: 2fb4 08bb a4b5 b0bc 241b cf3c f8fb 50bb
00000140: b8c2 76bc 3d14 a3bb 2e60 c0bc 9a67 e93a
00000150: 603e 96bc 8414 f0bb c6f1 81bc 32f1 2e3d
00000160: 079b 8fbc bb76 913c 3117 093c 6c16 7cbc
00000170: 27b5 8cbc c4ce 04bc 2b7b 2bbc 7266 1dbc
00000180: 61a8 86bb 53c7 3dbc c5e4 d2bb 83f3 483c
00000190: 33b8 39bc 9f78 3dbd 45f4 01bd 0e85 d9bb
000001a0: da59 aa3c eeaf a03c 6f9f e3b9 50c6 d73c
000001b0: 1029 e93b ad8c 833b bf5f bc39 2d37 1fbd
000001c0: f7e4 363c 5e02 dc3b ee22 92bc 8281 30bb
000001d0: baad 94bc 9e3e 93bb 51dd 97bc 7b68 08bc
000001e0: 0385 ba3c c626 db3b c81a d03c 18f5 6bbc
000001f0: eb00 103b f8ee 673c 4872 9d3b e788 d13b
00000200: 3544 b03c ed87 0abc 0eca 0dbc 8ff9 b5bb
00000210: baab c33a 04bb 353c 8863 85bc 55b6 72bc
00000220: 8977 35bb 1335 9fbb fffa deba 4608 453a
00000230: a47a d0bb b8aa dbba bdf7 4bbc 3cc2 ad3a
00000240: 4308 523b cb30 93bb c9fe b0bc 0260 80bc
00000250: dd79 91bb f127 0fbc 28d5 1bba e8c3 b03b
00000260: 7729 073d 7f5a 6abc 8009 1fbd 824a dfbc
00000270: e06d 793c f528 1dbd 5947 09bb 5f53 bdba
00000280: 98f8 3d3c 4fe9 573b 43b7 0cbd a9b0 d7bb
00000290: f9d1 533d 8197 8fbc dd31 6a3c 384f 8bb9
000002a0: bf8b 89bc 92a3 b7bb 7318 05bd 2d91 d0ba
000002b0: 23a3 fb3c c280 8a3c 8f76 5f3c 7e12 773c
000002c0: 784b 1bbc fafb 823c 9f6e 8e3c 2c82 3abb
000002d0: d335 9bbc 9585 8dbc a531 f6ba fd75 b7bc
000002e0: 6e77 043c aa1e d53c 6090 3dbc d848 16bc
000002f0: 03e0 a13b 007a be3c 59f8 48bb ada6 a6bc
00000300: c0e7 dc3a 242d 76bc ff06 66bc 7957 173c
00000310: a948 8bbb 1d6b e6bb da65 5a3b e1ee 8fbc
00000320: 1473 b53c 1046 a73b 8ea4 d5b9 e809 94bc
00000330: fcfb 12bd 6e80 97bb 6143 973b 9955 fabc
00000340: 2870 09bb b8a4 8abc c5b0 023c da2b 46bb
00000350: 65f1 d5bc 20f1 a53c 8d44 1b3c 2ebe 353a
00000360: 3a8f 2fbd e808 37bc 5a1f a83c 558b 303c
00000370: d148 753c c93c 393c 5d65 c83b 68ab 1cbc
00000380: cc34 c2bc 6353 61bc a546 07bd c0d1 87bb
00000390: 2e9b 6cbc a118 2e3c b771 7f3c 2b5c 213c
000003a0: b6e6 ea3b cc80 823b 1a3d bfbb 701b cbbc
000003b0: 41f7 883c a25f 61bb 06b6 003c dd26 a4bb
000003c0: 894f c4bb aa24 7f3c 5aa3 5c3c 41c7 ccba
000003d0: 3b1f 1d3c d5c8 00bc e585 f23b 0384 c83b
000003e0: 88a9 c83b 3332 4dba d023 a63b 59f1 be3a
000003f0: 5560 d83c 1c22 0bbd e7a4 d23b af16 3fbd
-0.046155114 -0.039179064 0.00772685 -0.019501096 0.011046507 -0.0042023635 -0.015949937 -0.02944796
-0.063616075 -0.002860682 -0.005157327 -0.010241419 -0.01051943 0.008970209 -0.0027724856 0.008184703
0.024166018 -0.0029671192 -0.011309571 0.0011923814 -0.0061202752 0.010341299 0.0073425765 0.010729964
0.008746502 0.008117655 0.026853545 0.0004883816 0.03166026 0.013151911 -0.0052299174 -0.0034677656
-0.011392583 0.0028168266 -0.0070755887 0.003284145 0.00062340137 -0.01593148 0.0030899784 -0.0040143146
-0.00454841 -0.010953253 -0.018039552 -0.0023017288 -0.00971162 -0.00032587722 -0.011629519 -0.005515888
-0.015135098 0.009448209 -0.030752556 -0.018095264 -4.2434975e-05 -0.0052401787 0.0035861828 -0.0007943085
0.017226955 -0.0038857358 -0.040478237 0.019962598 -0.019386033 -0.006682064 0.0049185273 0.002656186
0.014604433 -0.009461152 -0.014988818 0.008126471 0.00021871483 -0.013752103 0.013087938 -0.006409832
0.003552716 -0.010495715 0.012231968 -0.010517118 -0.002085935 -0.021570988 0.025281496 -0.0031888466
-0.015061073 -0.004976778 -0.023483362 0.0017807365 -0.01834029 -0.0073266644 -0.015862357 0.04271049
-0.017529977 0.01775681 0.008367346 -0.015386205 -0.017176224 -0.008105937 -0.010466377 -0.009606944
-0.004109428 -0.011583167 -0.006435963 0.012265089 -0.01133542 -0.04625761 -0.031727094 -0.006638176
0.020794798 0.01961514 -0.000434156 0.02633968 0.0071154907 0.0040145726 0.0003592949 -0.03887098
0.011162988 0.0067141494 -0.017838921 -0.0026932661 -0.018149246 -0.0044935485 -0.01853815 -0.008325691
0.022768503 0.0066879718 0.025403395 -0.014401697 0.0021973203 0.014156096 0.004804883 0.006394494
0.021516899 -0.008455259 -0.008654131 -0.0055534313 0.0014928498 0.011091951 -0.016282812 -0.014813979
-0.0027689657 -0.004858622 -0.0017012059 0.00075161865 -0.006362276 -0.0016759252 -0.012449202 0.0013256739
0.0032048381 -0.0044919006 -0.021605866 -0.01567078 -0.004439576 -0.00873755 -0.00059445435 0.0053944476
0.03299853 -0.0143038025 -0.03882742 -0.027257208 0.01522395 -0.038369138 -0.0020947068 -0.0014444402
0.011594914 0.003294546 -0.03435446 -0.006582339 0.051713917 -0.017528297 0.014294115 -0.0002657117
-0.016790269 -0.005604216 -0.03249402 -0.0015912406 0.030717438 0.0169071 0.013639106 0.0150800925
-0.009478442 0.015989292 0.017386733 -0.0028458936 -0.018946564 -0.017275611 -0.0018783106 -0.022395128
0.008085115 0.026015598 -0.011570066 -0.009172641 0.0049400344 0.023251534 -0.0030665605 -0.02034315
0.0016853735 -0.015025411 -0.014039754 0.009237164 -0.004250605 -0.007031812 0.0033324868 -0.017569961
0.0221496 0.0051047876 -0.0004074913 -0.01807113 -0.035884842 -0.0046234643 0.0046161865 -0.030558394
-0.0020971391 -0.016924247 0.007976715 -0.003023854 -0.026116082 0.020256579 0.009476793 0.0006932941
-0.0428612 -0.011171557 0.020522762 0.010775407 0.014970974 0.011305996 0.006115599 -0.009562351
-0.023706816 -0.013752791 -0.033026356 -0.004144877 -0.014441295 0.010625989 0.015591077 0.009848635
0.007168616 0.003982639 -0.0058361413 -0.024793357 0.016719462 -0.0034389277 0.007855898 -0.0050095157
-0.0059909266 0.015572706 0.01346668 -0.0015623347 0.009589965 -0.007860382 0.0074012154 0.0061192526
0.0061237253 -0.00078276097 0.005070187 0.0014567777 0.026413122 -0.033968076 0.0064283493 -0.046652492

motion_transformer.transformer.1.fc0.fc.bias f4 [50]
00000000: 10b0 3335 8804 18b3 e194 4834 3620 dd34
00000010: 7ae9 6034 fbbc ab35 9e26 7ab5 e4d6 5735
00000020: 1254 cd34 6988 f5b4 1f2c 74b5 7526 0fb6
00000030: 7e23 39b5 a436 c134 533f abb5 59d9 2ab5
00000040: 4510 a336 089b 66b5 c0fe 0c36 c769 9e34
00000050: 1615 4534 abe7 d0b5 4ebe 2d34 d068 c1b5
00000060: 10c5 80b5 82cb 2db4 077b 90b5 ccb3 5635
00000070: d549 0936 e939 45b6 ab93 7bb5 c2fa 15b4
00000080: 2ebc 6a35 177d 3435 9be7 0736 2876 5a34
00000090: 7208 25b5 20d0 9336 a0f3 6ab5 dc8d 1f36
000000a0: ebb4 ecb4 87a8 d633 eae8 8a33 d874 43b5
000000b0: 4032 df34 1c7a 6133 295b 5235 2759 ee35
000000c0: f388 a2b5 f412 75b5
6.69389e-07 -3.539438e-08 1.8680613e-07 4.1187894e-07 2.0946564e-07 1.2795493e-06 -9.3188453e-07 8.040645e-07
3.8245395e-07 -4.5734058e-07 -9.096129e-07 -2.1331045e-06 -6.896952e-07 3.5988808e-07 -1.2758923e-06 -6.364622e-07
4.8596726e-06 -8.5907277e-07 2.100991e-06 2.9506757e-07 1.8354726e-07 -1.5564632e-06 1.6181113e-07 -1.4410125e-06
-9.594096e-07 -1.6185916e-07 -1.0764642e-06 7.998285e-07 2.0457567e-06 -2.9388996e-06 -9.371967e-07 -1.3967932e-07
8.744563e-07 6.7237255e-07 2.025138e-06 2.0345817e-07 -6.147958e-07 4.4051703e-06 -8.7526314e-07 2.377542e-06
-4.409006e-07 9.9958065e-08 6.4684926e-08 -7.281319e-07 4.1573549e-07 5.2497953e-08 7.836375e-07 1.7758329e-06
-1.2109798e-06 -9.129719e-07

motion_transformer.transformer.1.norm0.alpha f4 [1, 66, 1]
00000000: 4b23 cc3d 7d84 923d 4b20 c93d 918a 483d
00000010: 9435 913d 54b9 e53d ecf1 df3d 03eb ec3d
00000020: 6bd2 a53b 0599 a33d 649a 0f3e 4407 d23d
00000030: c561 953d 8827 6e3d 9a76 313d addd bf3d
00000040: da16 033e 166d c73d 2c7b c03c 838b 503d
00000050: 4003 d43d 45bf da3d 64fc 8e3d cb46 253e
00000060: 08ee ce3d a6b9 883d 549b c83d 81d6 f63d
00000070: ea36 c13d 23f4 de3d b163 af3d 0eba de3d
00000080: 89e2 e63d f205 8f3d 5875 d03d 6f66 013e
00000090: b1ae 8f3d ea65 953d 2afe da3d f8ae 063e
000000a0: 6d68 ac3d d01d 8d3d 9a6d ce3d 2a86 cc3d
000000b0: feee e23d 9187 343e 7228 3a3d c720 083e
000000c0: 3838 8f3d 7005 b93d ba27 d63d f946 e43d
000000d0: cad7 093e 8250 da3d 1b2d 8d3c c029 b03d
000000e0: 70ed 023e 6215 d83d 627a 8c3d ff53 af3d
000000f0: 0d95 c83d 7823 ee3d 7331 a33d 47b7 c53d
00000100: e54e 803d d972 e93d
0.09967669 0.071541764 0.098206125 0.048960272 0.07090297 0.11216989 0.10934815 0.115682624
0.005060484 0.079881705 0.14023739 0.10255292 0.07294039 0.05814317 0.043325998 0.09368453
0.12801686 0.09737603 0.023496233 0.0509143 0.103521824 0.10681013 0.069817334 0.16140287
0.101039946 0.06676035 0.097952515 0.12052632 0.09434302 0.10886409 0.085639365 0.10875331
0.11273677 0.06983556 0.101786315 0.12636732 0.070157416 0.07294829 0.10693009 0.13152683
0.08418355 0.06890452 0.100794986 0.09986527 0.110807404 0.1762984 0.045448728 0.13293754
0.06993145 0.0903424 0.10456796 0.111463495 0.13461223 0.10659887 0.017233422 0.08601713
0.12785888 0.105509534 0.0685928 0.08560943 0.09794054 0.11627859 0.07968416 0.09654098
0.06265048 0.113988586

motion_transformer.transformer.1.norm0.beta f4 [1, 66, 1]
00000000: 4104 92bb 3d93 69bb 816c 0f3b 5e96 8b3b
00000010: 5cba 42bb 0061 933b 5b7f 39bb ad38 a53c
00000020: 35e2 96bc 2358 5fbb 0b96 543a 45c3 c23a
00000030: b5f8 9839 ad50 233b 95ed d0bb dc7c b039
00000040: c11f 2c3c 00c8 a8bc 0f39 243a e5f9 0c3a
00000050: dc53 173b b18e 6d3c c12c 263b 896c fe3c
00000060: 30ad 3e38 1e66 94bb f4f7 7e3c 31f6 1abc
00000070: d8cc adbb c707 0b3a 52c1 dd3a 5dce df3a
00000080: 42cd 45bb 405e 55bb 8129 fcbb 4279 72bb
00000090: bde0 6c3a 11fa bc3b d449 d0bb 9048 873b
000000a0: 6945 363b a1dd 453b 4971 d0ba e176 28b9
000000b0: 819b 553b d791 e23c 3bca 68bc 859a ffbc
000000c0: 357d 8aba d7e6 45bc 05b4 c7ba 9172 6b3c
000000d0: fd1e 3abc 191d b83a 90d6 423c ba40 5c3b
000000e0: e336 12bb 06f4 6d3b 01aa 52bb 0cab a139
000000f0: 8409 3e3b 3718 afbb 2835 643b eb1b 22bb
00000100: ed79 7b3b 3e59 4eba
-0.0044560735 -0.003564074 0.0021884742 0.0042598685 -0.002971313 0.0044976473 -0.002830467 0.020168627
-0.01841841 -0.0034079633 0.00081095163 0.001485922 0.00029177 0.0024919913 -0.0063759782 0.00033662363
0.010505618 -0.02060318 0.0006264606 0.00053778134 0.0023090756 0.014499352 0.0025356265 0.031057613
4.5460823e-05 -0.004528775 0.015562046 -0.009458111 -0.0053039603 0.0005303588 0.0016918576 0.0017075051
-0.0030182158 -0.0032557398 -0.0076953773 -0.0036998545 0.0009036174 0.005767115 -0.0063564572 0.004128523
0.0027812368 0.0030191916 -0.0015902902 -0.00016066014 0.0032593908 0.027657432 -0.014208372 -0.03120161
-0.0010565879 -0.012078962 -0.0015236145 0.0143705765 -0.011359927 0.0014046758 0.011891976 0.0033607916
-0.0022310547 0.003630878 -0.0032144787 0.00030835753 0.002899737 -0.005343463 0.0034821723 -0.0024735879
0.0038372234 -0.00078715745

motion_transformer.transformer.2.fc0.fc.weight f4 [50, 50]
00000000: 095a c8bc 34b3 9dbc 01d9 d43c 96ff afbc
00000010: f02e 2a3b c3bb b8bc e3b1 11bb 634c 88bc
00000020: 779a 2dbb 3b75 383c 90b8 b6bc 2eb1 793d
00000030: 1f4e 013c c5ad 85bc 2307 4d3c bed1 9d3b
00000040: 7d19 ad3b 3c60 82bc 7bdd 893c 788a 86bc
00000050: 5d73 89bc 8e69 8a3b 5390 0abd 58ec 4bbb
00000060: 60df 79bb 8d75 56bb 7622 d9bc c9dc 45bc
00000070: 81fa 47bc 5aec be39 3929 a8bc 7b7c e7bc
00000080: e72b bc3c 5463 2b39 2996 ec3c 2386 45bc
00000090: c1e1 fd38 6c9b 87bc 68ae 8ebc 08c4 53bb
000000a0: 1ea4 2c3c ad27 26bc 332d cbbc dc2e 2dbc
000000b0: 1d9e 663c 7216 0cbb 12dd ad3c 7281 ba3c
000000c0: 765f a8bc 30aa 0b3c 2a43 43bc 29ce 2d3c
000000d0: 00c1 c63c bae6 73bc 9501 93bc c337 2cbd
000000e0: bbd5 09bd dc9b a03c b2cd 303c 7e91 6ebc
000000f0: 38a2 ccb6 963e 403d 545a 22bc d6f8 ce3c
00000100: d352 88bb 927d 97bb eb3f 82bc 27c9 e9ba
00000110: 3b41 243c 71a3 cd3c a58b 51bb 9708 273b
00000120: bdcc 493c 0c9d cc3c dd04 33bd 0e67 3f3c
00000130: 9344 033c a80c 50bc 3760 fc3c a85e 8dbb
00000140: f185 263c 31a6 5d3c 2c89 b53c d4e5 923c
00000150: aea1 5b3d 7296 843c cb8a 66bc 82a0 f7bc
00000160: 95e4 fd3b 529b f93b 1c5b b7bb 9182 103c
00000170: 35c1 523c 2af9 7ebc bc14 533b 8e09 9ebb
00000180: f3ff e739 b488 4b38 fc37 ce3c 0502 2cbc
00000190: a035 84bc 13d7 96bc 87fb 5abc 9d22 a1bb
000001a0: a0f8 723c 6746 34bc 0e0e b9bb cd0b a33c
000001b0: 0bee 48bc acfa fe3b 4a32 1ebc 353a 82ba
000001c0: 65fd 9cbc 5819 543b b71e cb3b cbc4 0dbd
000001d0: e223 19bd 051e e2bc 94f9 dcbc ac50 86bc
000001e0: efae 053a 87a7 5d3c cf15 713c a18b cabc
000001f0: 08c6 e03c 08fd c7bc aafc 18bd f8a6 c8bb
00000200: 166d 1ebc 65c3 8cbc f193 92bc 5c20 debc
00000210: 385e bdba 0b50 903c 29fd d2bc 4770 55bc
00000220: f865 bfbc 9627 ae3c 1425 02bc d42b ef3b
00000230: d599 7dbc 2bbd d93b 305c 46bc deec 30bb
00000240: 48fd c5bb 3651 ebba 02a6 51bc 5969 85ba
00000250: 2b20 25bc 4a30 4d3b d0cc 89bb ccc6 8bbb
00000260: 2488 823c 9751 1ebd 63b4 97bc 46e0 b03a
00000270: c875 f3bb 7873 3abc fdaa 5dbc 865d f7bc
00000280: 4696 a53c db5e cd3b 68be 173c 81a7 2abc
00000290: 030a 873b c0e2 86bc d663 b0bb a9ca 1dbb
000002a0: e2d0 8abc e7f1 223c 5e7c f5bc d98b d3ba
000002b0: 8f40 883b 51e3 8a3c 4ef1 acbc 4545 343c
000002c0: c5c4 453c aff3 b2bc b880 533c 2188 4e3c
000002d0: 80e6 0e3c febd 913c 868d 243d 8c5a 823c
000002e0: 71ac 413c 753e 2c3c 5c3d 743c 41fc f43c
000002f0: f2f3 d039 aeb5 92bc 5d98 d4bc ee89 17bd
00000300: e5b3 203b 0d8c e1ba 85d0 903c 503b 8a3c
00000310: 31d4 dd3c d0a1 6dbd e512 40bc 959e 273c
00000320: 506d 043c e572 37bb 1356 a9bc af7b 313c
00000330: 9bbb 2bbd c9a7 e6bc ed0a 94bc 2f85 debb
00000340: 449f ebbb 5ffa c9bc 6408 643c f2a9 6f3c
00000350: 5d70 dcbb 6b65 e73a 1681 323d 83d6 933c
00000360: b7e6 923c 2ce7 b4bb 13a3 8dbc ec5d 893c
00000370: f163 253c eefa 9fbb 8aef 1e3c ba34 c63c
00000380: b81c 17bc bcc9 c3ba 6f53 1f3c 0182 12bd
00000390: 9173 55ba b97c 383d 5bfd 0939 516d 833c
000003a0: 2e5e 28bb 7ff4 52bc fd25 98bc 4050 b3bb
000003b0: 8b1b 573d 34bf b03b 68bb c43a 0a39 da3c
000003c0: b936 45bd 0b60 393b ff26 2ebc 69fb 433c
000003d0: f3c1 0fbb c83f e9ba 7492 d33b 7e47 3d3c
000003e0: c1c9 9cbc 4fab 2d3c 6ce3 05bc 1b49 35bb
000003f0: dad2 0fbd 3454 303b 90fa 3a3c 7771 abbc
-0.024456995 -0.01925049 0.025982382 -0.021484178 0.0025967918 -0.02255047 -0.0022231273 -0.016637987
-0.0026489773 0.011258419 -0.022304803 0.060959987 0.007892161 -0.016318211 0.012513909 0.004816263
0.0052825795 -0.015915029 0.016829243 -0.016423449 -0.016778642 0.004224009 -0.033829045 -0.0031116214
-0.0038127527 -0.0032723874 -0.02650569 -0.012076565 -0.012205721 0.0003641572 -0.020527469 -0.0282576
0.022970153 0.00016344833 0.028880196 -0.0120559065 0.0001210603 -0.016553603 -0.017417148 -0.0032312889
0.010537175 -0.010141295 -0.024801826 -0.010570254 0.014075783 -0.0021375683 0.021223579 0.022766802
-0.020553332 0.008524463 -0.011917869 0.010608234 0.024261951 -0.0148865525 -0.01794509 -0.042045366
-0.033651095 0.01960557 0.010791229 -0.014561055 -6.0985585e-06 0.046934687 -0.009909231 0.025265139
-0.004160264 -0.0046231234 -0.01589962 -0.0017836437 0.010025318 0.025102349 -0.0031974104 0.0025487298
0.01231688 0.02497723 -0.04370581 0.011682285 0.008011955 -0.01269833 0.030807598 -0.0043142624
0.01016377 0.013528393 0.022160135 0.017931856 0.053620987 0.01618502 -0.014071177 -0.030227903
0.0077481964 0.0076173926 -0.005595578 0.008820192 0.012863447 -0.015562335 0.0032208404 -0.0048229164
0.0004425045 4.8526286e-05 0.02517318 -0.010498528 -0.016138852 -0.018413102 -0.013365633 -0.0049174563
0.014829785 -0.011003113 -0.0056474274 0.019903088 -0.012263785 0.0077813473 -0.0096555445 -0.000993556
-0.019163797 0.003236374 0.00619873 -0.034611505 -0.037387736 -0.027602205 -0.026974477 -0.01639589
0.00050996145 0.013528711 0.014714672 -0.024724783 0.027438179 -0.024412647 -0.037350334 -0.00612342
-0.009669563 -0.017183015 -0.01789281 -0.02711504 -0.0014447635 0.017616292 -0.025755482 -0.013027257
-0.023364052 0.02125911 -0.00794341 0.007298926 -0.015478571 0.006644865 -0.01210694 -0.0026996653
-0.0060421564 -0.001795328 -0.012795927 -0.0010178491 -0.01007847 0.00313093 -0.0042053238 -0.004265642
0.015934058 -0.03865203 -0.018518632 0.0013494573 -0.007429812 -0.011380069 -0.013529536 -0.030195963
0.020213258 0.006267411 0.009261705 -0.010415913 0.0041210665 -0.016465545 -0.005382995 -0.0024077094
-0.016945306 0.009945369 -0.02996653 -0.00161397 0.0041580866 0.016954096 -0.021111157 0.011002843
0.012070839 -0.021844713 0.012909107 0.012605698 0.008721948 0.01779079 0.04017403 0.015912317
0.011820898 0.010512938 0.014907207 0.02990544 0.00039854605 -0.017908897 -0.025951559 -0.036996774
0.0024521288 -0.0017207876 0.017677555 0.016873986 0.02707872 -0.058015645 -0.011723255 0.01023068
0.008082703 -0.0027992066 -0.020670926 0.010832711 -0.04192696 -0.028156178 -0.018071616 -0.006790779
-0.007190617 -0.024655519 0.013918016 0.01462792 -0.006727262 0.0017654126 0.043580137 0.018046623
0.017932279 -0.005520722 -0.017289674 0.016768418 0.010094629 -0.004882208 0.009700665 0.024195064
-0.009223156 -0.0014937441 0.009724482 -0.035768513 -0.0008142526 0.04504082 0.0001315972 0.016043337
-0.00256909 -0.012875675 -0.018572802 -0.005472213 0.0525165 0.005393887 0.0015009465 0.026638526
-0.04814789 0.0028286006 -0.010629415 0.011961796 -0.002193567 -0.0017795498 0.0064566676 0.01155269
-0.019139173 0.010599925 -0.008171897 -0.0027661982 -0.035113193 0.0026905658 0.011412278 -0.020928128

motion_transformer.transformer.2.fc0.fc.bias f4 [50]
00000000: b0fe 4b35 d8f7 8934 34b3 69b5 4ded 8c35
00000010: 8b74 2335 ec6b 9234 43a6 2fb5 388a 6d35
00000020: f6c3 0db5 3cfd f2b4 fbe5 aeb4 21a2 7535
00000030: 5fbf 1e36 68b1 1db5 849a 8435 a7cb 67b3
00000040: d5b3 5135 3622 6735 1d3f 40b4 a381 dd35
00000050: d1e3 96b5 91c7 d0b5 510c 6db4 e2b1 6eb3
00000060: d844 2f35 5673 3f35 73e0 a3b4 fb11 c634
00000070: b814 1e35 d7ad 82b5 82e0 9535 f060 3035
00000080: 956e 0a35 7429 e4b5 a820 aeb3 fab9 54b4
00000090: 3a1b b8b5 0c5f da35 2d4f 67b4 3016 18b4
000000a0: c9f8 ce34 40ee 7a34 c494 1934 12f8 8035
000000b0: 3896 5fb4 e6ba 65b6 9dfd 7334 d67f 2db5
000000c0: 53d8 4cb5 9c2f 0a35
7.599401e-07 2.569857e-07 -8.706004e-07 1.0499876e-06 6.0891824e-07 2.7273143e-07 -6.5434523e-07 8.8490515e-07
-5.2811754e-07 -4.5260265e-07 -3.2577358e-07 9.150554e-07 2.3655227e-06 -5.874522e-07 9.879736e-07 -5.39691e-08
7.812026e-07 8.610399e-07 -1.7904354e-07 1.6503512e-06 -1.1242174e-06 -1.5555289e-06 -2.2076826e-07 -5.5575477e-08
6.529276e-07 7.132088e-07 -3.0524424e-07 3.6893456e-07 5.8889736e-07 -9.736349e-07 1.1166705e-06 6.570617e-07
5.1569924e-07 -1.6999388e-06 -8.1084465e-08 -1.9811696e-07 -1.3716992e-06 1.6269928e-06 -2.1542355e-07 -1.4164175e-07
3.8551505e-07 2.3369739e-07 1.4303356e-07 9.608941e-07 -2.0823143e-07 -3.4232448e-06 2.2723403e-07 -6.463355e-07
-7.6310715e-07 5.1478287e-07

motion_transformer.transformer.2.norm0.alpha f4 [1, 66, 1]
00000000: 801a 8d3d 7ee2 113d b562 6f3d 9c2c 6e3d
00000010: 638e 843d 7327 983d 585d c23d ab7c 9a3d
00000020: 41ee 4c3c e27f 653d 6983 763d fdad 683d
00000030: 1bce 833d 922e 623d 475b cf3d ad92 b53d
00000040: 10e9 b13d 1bd8 993d 1383 ca3c b17c 143e
00000050: 5759 753d d297 963d c2e8 883d 4db0 c43d
00000060: 5b6c 973d 93b8 9d3d 2c76 473d d8ab af3d
00000070: c33a 7a3d 4c49 963d b6d2 793d 5ea3 be3d
00000080: debc 903d 73d9 3c3d 45f9 9c3d 3b0d ba3d
00000090: bc8d 463d 8a81 683d 0b75 a23d 28da b13d
000000a0: 581b 943d 53af 113d a707 833d f541 733d
000000b0: 3e10 a43d de87 ab3d bf1a 653d e029 973d
000000c0: 82cb 823d b3d1 b83d 658f 9d3d 21c9 c13d
000000d0: faaa ba3d 0590 973d d8bf 6a3c 026d 7b3d
000000e0: 8f9c 823d efa6 7a3d 2b4b 7f3d 6ec7 bd3d
000000f0: 0673 7d3d 284b a43d 4cd0 7b3d 503a 9e3d
00000100: b388 953d 4a60 af3d
0.0688982 0.03561639 0.058443744 0.05814801 0.064724706 0.07429399 0.0949046 0.0754331
0.012507976 0.05603016 0.060183916 0.056806553 0.06435796 0.055220194 0.10124832 0.08865867
0.08687031 0.07511922 0.024720704 0.14500691 0.059899654 0.07353176 0.0668502 0.09603939
0.07393714 0.0770122 0.04869668 0.085776985 0.061091196 0.07338199 0.060991965 0.093085036
0.070672736 0.046105813 0.07664732 0.09084555 0.048475012 0.056764163 0.079324804 0.08684188
0.07231778 0.035567593 0.06397944 0.059389073 0.080109105 0.08375524 0.05593371 0.07381034
0.06386472 0.09024372 0.07693366 0.094621904 0.091146424 0.074005164 0.014327966 0.061383255
0.063775174 0.061194357 0.062327545 0.09266554 0.061877273 0.080221474 0.061477944 0.07725966
0.07301464 0.085632876

motion_transformer.transformer.2.norm0.beta f4 [1, 66, 1]
00000000: 8e62 c33b 123b 123b 32b4 0e3b 652a 79bb
00000010: 2b8d b43b a5e6 26bb 8175 5bbb fb47 eaba
00000020: f7a3 c6ba 5ca2 933b 03b4 843b d250 5c3b
00000030: eb05 3d3a 929c 18bb d237 76bb 8de3 8eba
00000040: d538 a5b8 7334 803b 90cc 693b 4cf1 efbb
00000050: d275 2ebb 4cf1 4abb 53dc b53a df94 c8bc
00000060: 4be5 74ba f6d6 00bb eb7e 1ebb 0c75 603b
00000070: 8e49 2d3c 6083 e73b 7289 1f3b 7ba3 0bbc
00000080: ee52 9c3a 7b2e a3bb f781 d23b ee7c f63b
00000090: e52a afbb 1f33 10bc dbb2 6abb bfb5 303a
000000a0: 8868 393c aae8 6c3a 4bf8 7cbb 6d2f 6dbb
000000b0: 4a9f b73b b491 343c 2a12 373c d5c5 0ebc
000000c0: 5530 0a3c d278 90bc 49c1 fcbb 13ad 673c
000000d0: a256 88bc f820 58bb d99b 8a3a 2390 57bb
000000e0: da84 04bc 51af a93a 1bea c43a 0a39 a2bb
000000f0: be99 763c 9c49 543a 268b ce3a e64a b7bb
00000100: 6087 243b ceb2 0a3c
0.0059626764 0.002231304 0.0021774885 -0.0038019654 0.0055099926 -0.0025467065 -0.0033486786 -0.0017874235
-0.0015155067 0.0045054387 0.0040497794 0.0033617509 0.00072106597 -0.0023286683 -0.0037569893 -0.0010901556
-7.878399e-05 0.0039125024 0.0035674907 -0.007322466 -0.002662052 -0.0030966578 0.0013874866 -0.02448505
-0.00093420286 -0.0019659377 -0.0024184536 0.0034249453 0.010576619 0.0070652217 0.0024343398 -0.0085228635
0.001192657 -0.004979906 0.0064241844 0.007522217 -0.0053456896 -0.008801251 -0.0035812173 0.00067409495
0.011316426 0.0009037355 -0.0038600143 -0.0036191598 0.0056037055 0.011021066 0.011173764 -0.008714159
0.008434375 -0.017635737 -0.007713471 0.014140385 -0.016642872 -0.0032978635 0.0010575011 -0.0032892309
-0.008088315 0.0012945925 0.0015023382 -0.0049506472 0.015051303 0.0008098127 0.0015758022 -0.0055936454
0.0025105104 0.008465482

motion_transformer.transformer.3.fc0.fc.weight f4 [50, 50]
00000000: c077 30bb 2da7 793c 4564 833c 9735 c73a
00000010: cad6 3539 756a 41bc aff3 2d3c d5bc 93bc
00000020: 83e2 40bc 18ec 16bc 094d 4f3c 8e5d 53bc
00000030: 3412 1ebd abe4 cd3b 4f23 e43b 7845 1f3c
00000040: 256c 7b3c 149c 203c 8da4 ba3b f8e4 8f3c
00000050: 3ca2 81bb 6497 24bd 8a57 023d 6b43 2d3d
00000060: 93cb 6d3c b578 c63c 1707 823c 0c41 293d
00000070: ecef f4b9 8d28 ba3c b979 bd3c aa66 91bb
00000080: 1ee7 333d 5670 a9bb c412 583c 869b 91bc
00000090: 3652 913c 623d ca3c 8183 31bc 93c9 143c
000000a0: 257b bfbc 698b da3b cb48 ce3c 21ea 9bbb
000000b0: ed4d d0b9 201a 53bc b652 c5bb a5f6 afbb
000000c0: c50f 88bc a7f7 223b e6b0 b33c 366a d2ba
000000d0: 5ea6 8aba 2233 92bc d015 84bc 83e5 5cbc
000000e0: 48aa b43b 414d 5cbb 21e6 12bd 7602 e5bc
000000f0: 7305 a9bb fc6d c3b9 36d3 e3bb 2ea5 f8bc
00000100: f1cd 5c3b 579f 41bb 69eb 0dbd 2d19 80b9
00000110: 5b4f e9ba b304 eaba d234 52bc 809a eebb
00000120: e2b5 82bc 7e4f 2cbd ef49 aa3c cbf4 943c
00000130: 8c09 4abc c859 c0bb 6ad5 db3b 3745 48bb
00000140: ae97 5d3b 0099 e7bc 2efa 763c 6b9b d73a
00000150: 09c5 8b3c 68fa a0bc e7bd 033c addc 123c
00000160: 328c b5bb 6bc5 563a 53e7 3bbc d147 92bc
00000170: 28c5 793c 1fc5 efbb 9e49 8b3c c813 853c
00000180: dfca 293c f362 a93b e309 02bc 5863 ca3b
00000190: b37b 5a3c 6e06 97bb db5d b63c 4463 18bd
000001a0: 2cd0 6f3c 23be bdba d1e3 c6bc 8e44 9abc
000001b0: b719 00bd 940f 2ebc 923d 763c cc6f 6f3c
000001c0: 6e1f c0bb 6b37 35bc 85c2 67bc 7492 fe3c
000001d0: 9283 2b3c a227 2ebc 5ffa be3c c3ff b83c
000001e0: d952 d23b 4946 15bc 4211 4bbb e553 903c
000001f0: 36b3 eabb c54a ea3c e0f1 31bb 5d05 df3c
00000200: 11e8 223c 70fc b93c d7e2 1a3c 5043 7cbc
00000210: 454c 5f3a 4713 19bb 1eb6 2f3c b1cb c53b
00000220: 140b 8dbc da11 df3c 7816 67bc f187 f1ba
00000230: 369a c5bc 3fd0 d2bc d438 b9b9 d7a9 d9bb
00000240: 837d f03a 6dbb 1f3c 94ac 473b ce1a 413c
00000250: 900e b3bc 5324 6f3c a5b6 41bc 4560 eb3c
00000260: 184e b03a fe90 64bd a4cd b73b 82e4 303d
00000270: 171e ea3b 0f98 98bc a88b 16bc fba4 1f3d
00000280: 0fb9 4f3c b6ad 953c 16b6 e73c c7f5 3dbc
00000290: 91f7 9bbc 6817 05bc 7599 1fbb 901f d8bc
000002a0: 4e01 ac3b c679 5b3c a46d 943a 12e1 293c
000002b0: 24fd 33bc 437a 913c 159d 46bc cec1 c73b
000002c0: 7d6d c13c ae3a 48bc 7d23 94bb 29b8 e2bc
000002d0: 827b a03b 5d73 52bb d501 20bc 9494 c5ba
000002e0: 2bbc c8b9 9566 f7bc 17d7 25bd bea2 34bc
000002f0: 9043 1dbc 7a42 89bc 0c2b ce3c 2835 b6bc
00000300: c376 e3bb e141 893a 5a39 613c 90c4 c9bc
00000310: 87f5 10bd 639c f7bb d6bc 01bd a746 6e3c
00000320: 1105 723c c632 1dbc d299 89bc 984c 86ba
00000330: d8ba 7ebd b28d 4c3c d492 2fbc 16d0 823b
00000340: ac09 813c 8a5e abbc 0978 033a bb20 903c
00000350: 343d 2c3d 10bd 26bc 180e d5bc 9e43 13bc
00000360: b42c acbc 763e 8c3c 2ae7 9738 eb4f b1bc
00000370: 2b0e d8bb 9dad 20bc 3d27 3a3c 9d50 d5ba
00000380: d683 a43c d2b3 2d3d 0b50 e3bb f0b0 223d
00000390: 77ab deba a09b b8bc 6c9b ec3c 6def 5b3c
000003a0: f8dc 12bc 43ec f939 7cad 12bd 7100 a6ba
000003b0: e15e bebc dad5 5a3c a2a0 bfbc 582d 313c
000003c0: 2bb4 383d 18e0 65ba 2272 4e3d a000 8c3a
000003d0: f33b 91bc 1d59 313d 5e04 1f3c d6f4 e63b
000003e0: 26a2 6d3c dece 94bc ef8b dd3b 58da 80bc
000003f0: f6f9 e9bc bc6e 85bc 30d2 74bc 7cea 21bd
-0.0026926845 0.015237612 0.016039023 0.0015198466 0.0001734152 -0.0118051665 0.010617181 -0.018034378
-0.011772755 -0.009211563 0.012652644 -0.012900723 -0.03859158 0.006283363 0.006962217 0.0097211525
0.015345608 0.009802837 0.0056958855 0.017565235 -0.0039561074 -0.04018344 0.031821765 0.042300623
0.014513868 0.02422748 0.015872521 0.0413218 -0.00046718062 0.022724414 0.023129331 -0.0044372873
0.043921582 -0.005170862 0.013188068 -0.017774355 0.017739397 0.024687473 -0.010834576 0.009081262
-0.02337415 0.006669451 0.025181195 -0.004758135 -0.0003973091 -0.012884647 -0.006021823 -0.0053699785
-0.016609082 0.002486685 0.021934938 -0.0016053382 -0.0010578146 -0.017846648 -0.016123682 -0.013482454
0.005513463 -0.0033615383 -0.035864 -0.027955275 -0.0051581203 -0.00037275243 -0.0069526685 -0.030352201
0.0033692087 -0.0029544437 -0.034648333 -0.0002443282 -0.0017800139 -0.0017854184 -0.012829976 -0.0072816014
-0.01595587 -0.042067997 0.020787207 0.018183133 -0.012331378 -0.0058700778 0.0067087905 -0.0030558833
0.0033812332 -0.028271198 0.015074296 0.0016449516 0.017061727 -0.019650653 0.008040882 0.008963746
-0.005540394 0.000819287 -0.011468726 -0.01785651 0.01524476 -0.0073172 0.017002877 0.016244784
0.01036331 0.0051692664 -0.0079369275 0.0061763935 0.013335156 -0.004608921 0.02226155 -0.037204042
0.014637034 -0.0014476221 -0.024278553 -0.018831518 -0.031274524 -0.010623831 0.015029328 0.014614057
-0.0058631217 -0.011060576 -0.014145498 0.031075694 0.0104683805 -0.010629566 0.023312746 0.022582894
0.0064185676 -0.009110996 -0.0030985628 0.017618129 -0.007162477 0.028600106 -0.0027152225 0.027224237
0.009943024 0.02270338 0.009453497 -0.015396908 0.000851814 -0.0023357437 0.010724572 0.006036245
-0.017217197 0.027230192 -0.014104478 -0.0018427355 -0.024121385 -0.025734065 -0.0003532829 -0.006642561
0.0018347952 0.009749276 0.0030467855 0.011786176 -0.02185753 0.014596063 -0.011823331 0.028732428
0.0013451008 -0.055802338 0.005609231 0.043186672 0.0071447003 -0.018627195 -0.00918857 0.038975697
0.012678399 0.018271308 0.028285068 -0.011594242 -0.019038947 -0.008123256 -0.0024352942 -0.026382238
0.005249179 0.013395732 0.0011324179 0.010368602 -0.010985646 0.017758494 -0.012122412 0.0060961014
0.023611778 -0.012221022 -0.004520832 -0.027675705 0.004897536 -0.003211222 -0.009766062 -0.0015074187
-0.0003828717 -0.030200282 -0.04048833 -0.011025129 -0.009598628 -0.016755331 0.02516701 -0.022242144
-0.0069416477 0.0010471904 0.013746584 -0.024629861 -0.035390403 -0.0075564845 -0.03167423 0.014543212
0.014771716 -0.009594625 -0.01679698 -0.0010246215 -0.062189907 0.012484955 -0.010716159 0.003992091
0.015751682 -0.020919103 0.000501514 0.017593732 0.042050555 -0.010176912 -0.026007697 -0.008988289
-0.02101741 0.017119627 7.243299e-05 -0.021644553 -0.006593486 -0.009807018 0.011361894 -0.0016274635
0.020082396 0.04240782 -0.006937032 0.039719522 -0.0016988356 -0.022535145 0.028882705 0.013423783
-0.008963816 0.0004766901 -0.03580998 -0.0012664926 -0.023238601 0.01335665 -0.023392025 0.010814033
0.045093697 -0.00087690493 0.050401814 0.0010681339 -0.017728781 0.043297876 0.009705631 0.0070482297
0.014503991 -0.018165048 0.006761066 -0.015729114 -0.028561573 -0.016288154 -0.014942691 -0.039530262

motion_transformer.transformer.3.fc0.fc.bias f4 [50]
00000000: 1862 a9b5 9c0d aa35 e1b6 5ab3 3f60 ab35
00000010: 99b2 7bb4 0d4c aeb5 8bc9 c134 20dd 8434
00000020: c9a5 20b5 6c02 81b4 38e5 0135 83ce 3ab4
00000030: 9418 9c32 d144 bcb4 6abf 99b5 00c3 e12f
00000040: 1c90 6f35 a0e3 a1b3 257d 7835 a8cc 1d34
00000050: 0bb5 3935 e71d 3534 f423 b5b3 f9ca ba34
00000060: 6ead e333 66be f334 4a5b 88b4 517a f634
00000070: 08f4 e235 600e 3434 7c2e 5db4 6fdc a734
00000080: a2d1 25b2 291e 5134 a6df 0335 fd70 0635
00000090: 31e4 bbb5 adf2 03b6 59ab 4035 f964 9fb5
000000a0: ba6f 1935 3c26 b5b4 9ab8 1eb4 420a 2d33
000000b0: 4ce1 8234 bcdf cfb4 34f9 5834 b981 50b4
000000c0: bd5d 1f35 05eb 9eb5
-1.262003e-06 1.2669948e-06 -5.0923408e-08 1.2768504e-06 -2.344117e-07 -1.2986144e-06 3.6095693e-07 2.4747806e-07
-5.9845894e-07 -2.4029885e-07 4.83898e-07 -1.7397728e-07 1.8171967e-08 -3.50678e-07 -1.1455097e-06 4.1065817e-10
8.9244145e-07 -7.5385515e-08 9.256931e-07 1.4696218e-07 6.918132e-07 1.6867817e-07 -8.435009e-08 3.4792882e-07
1.0602058e-07 4.540081e-07 -2.5398396e-07 4.5910068e-07 1.6909335e-06 1.6769036e-07 -2.059914e-07 3.126656e-07
-9.651929e-09 1.9475614e-07 4.9126754e-07 5.008331e-07 -1.3998998e-06 -1.9661777e-06 7.177492e-07 -1.187581e-06
5.7159525e-07 -3.3741696e-07 -1.4782054e-07 4.028903e-08 2.4378312e-07 -3.8719543e-07 2.0207227e-07 -1.9418702e-07
5.9368523e-07 -1.1840317e-06

motion_transformer.transformer.3.norm0.alpha f4 [1, 66, 1]
00000000: 4099 b13d 82d6 103d 7f22 6c3d 4e9f 563d
00000010: e98e 353d c708 8b3d a8af b43d 4439 a13d
00000020: 2f25 0e3c 684b 5c3d 8e57 853d 03f7 313d
00000030: 8c0b 7f3d 4ed0 2e3d cd31 123d 787a 1a3d
00000040: ef59 ab3d 52c2 9f3d f4b1 c73c c4e8 2f3d
00000050: da72 5a3d 1575 a73d 99b0 1c3d c87e 373d
00000060: d411 863d ef78 533d b6f6 523d 7bfb a93d
00000070: 167b 4a3d 00bd 553d e262 803d 95fb a93d
00000080: ba22 9f3d 2858 3b3d 4061 8b3d 4a1d 813d
00000090: 73e3 753d 555e 493d 8117 a93d e1ad b13d
000000a0: d773 803d 2bc1 533d b4b9 663d 8263 5d3d
000000b0: de30 913d 727e d43d 5ba6 8f3d 6650 af3d
000000c0: eb79 1d3d 2ff2 a93d 6c93 8b3d c900 ae3d
000000d0: b588 cf3d 31bd 903d fe20 583c e85b 593d
000000e0: 8c06 823d f29f 713d 2182 233d c13b b63d
000000f0: a5f8 7a3d 6b96 af3d 9bc2 5d3d 8d0e 933d
00000100: 1490 8c3d c300 ac3d
0.08671808 0.03536082 0.057650086 0.05239802 0.044325743 0.067887835 0.08822566 0.07872251
0.008675857 0.05378285 0.0651084 0.04344846 0.06226687 0.042679124 0.035692025 0.03771445
0.08366763 0.078007355 0.024376847 0.042946592 0.053332187 0.081766285 0.038254354 0.044798642
0.06546369 0.051629003 0.051504813 0.08299919 0.04943379 0.052182198 0.062688604 0.082999386
0.077702954 0.04573837 0.06805658 0.063044146 0.060031366 0.049162228 0.08256436 0.08675743
0.06272095 0.05169789 0.056329444 0.054049976 0.07089399 0.1037568 0.07014152 0.08560257
0.03844635 0.08298146 0.06815228 0.084962435 0.10133497 0.070673354 0.01319146 0.053066164
0.06348905 0.058990426 0.039919022 0.08898116 0.061272282 0.08573612 0.05414067 0.0718051
0.06863418 0.08398583

motion_transformer.transformer.3.norm0.beta f4 [1, 66, 1]
00000000: 2749 873b abc1 8dbb 0624 00bc bc7e d93a
00000010: 0926 83bb d057 3fbb e8a8 c63c 1308 bd3b
00000020: ec70 1838 4886 2b3b ad5a 75bc b06e 3fbb
00000030: 1e56 36bb 5dec bd3b d726 f43b 9d40 26bb
00000040: 86cc 2fbc 55cf 383c 1dfc 2abc 74b8 793c
00000050: 3f37 463b 1998 0cbb c4ba c63b 87b3 95bc
00000060: a9c9 273b 5561 013c ec8b ccba f6e0 773b
00000070: cbdf 1fbb a2f4 bebb 3c05 b7b8 ece8 663a
00000080: 0054 bfba 7c73 c8b9 825d 8c3b d5f7 35bb
00000090: 1668 3cbb 9529 9eba c41a f2ba 0911 78bc
000000a0: c116 b6bc 30f9 8abb 2e73 883c 41b7 e93b
000000b0: 8e0a 29bc 1376 ef3c 3043 3c3c 6132 16bb
000000c0: 14a6 bebb 093d 3f3b 366a 2f3b 335d 7bbc
000000d0: acdb ef3c d3f1 a73b 5229 613b f2eb 483b
000000e0: 2f5e df3b 7ca9 1a3c aa74 ddbb 8ac7 cbba
000000f0: 9d23 34bc 2d41 d93b 7074 94bb 880d bc3b
00000100: 0147 12bc 213d 04ba
0.0041285935 -0.0043260655 -0.007821089 0.0016593556 -0.004002337 -0.0029196627 0.024250463 0.005768785
3.634479e-05 0.0026172567 -0.014975232 -0.0029210262 -0.0027822326 0.005795999 0.007450919 -0.0025368102
-0.0107299145 0.011279901 -0.010436085 0.015241731 0.0030245332 -0.0021452962 0.0060647447 -0.018274082
0.0025602377 0.007896741 -0.0015605665 0.0037823296 -0.0024394866 -0.0058275023 -8.727095e-05 0.0008808512
-0.0014597178 -0.00038233015 0.004283608 -0.0027766128 -0.0028748563 -0.0012066836 -0.0018471112 -0.01514078
-0.022227647 -0.0042411312 0.016656484 0.0071324413 -0.010317458 0.029231107 0.011490628 -0.0022918212
-0.005818138 0.0029180667 0.0026766188 -0.015342045 0.029279552 0.0051252632 0.0034356904 0.0030658212
0.0068166475 0.009439822 -0.006758292 -0.0015547138 -0.010994819 0.006630084 -0.004530482 0.0057389177
-0.008928061 -0.00050445093
